Exp_rates_generalized_exp_setup/FNN_training/models/model_da720cd5.pth (torch, 338444 bytes, 8 tensors)

rnn.weight_ih_l0 f4 [512, 16]
-0.2154105 0.045898426 0.10355728 -0.116176635 -0.22074236 0.035484146 0.16053484 0.12500694
0.12013332 -0.23009613 -0.16497849 -0.121693276 -0.08783801 0.014197233 0.4106672 -0.034357727
0.027760949 -0.07554946 0.0563629 -0.0071504735 -0.015449263 -0.020246636 0.01072812 -0.05555986
0.26231915 0.19708855 0.12846307 -0.085989274 -0.23626837 0.23114368 0.8778848 -0.65031695
-0.10741475 -0.09575851 0.12839532 0.20228924 0.30636397 -0.021118872 -0.12536821 0.011031726
-0.10577966 0.034287848 0.049382083 0.09966493 0.13720848 -0.05945389 -0.5316968 0.26736605
-0.084884845 0.03302895 0.2006289 0.45204797 0.24501638 0.22285952 -0.019359654 -0.14635211
0.31674448 0.120744966 0.20347065 0.25018513 0.13091934 0.009412105 0.2697906 -0.06833305
-0.18516567 -0.066157416 0.006228188 -0.036417622 -0.07980101 -0.048714664 -0.0053409985 -0.009777414
0.039855354 0.020203851 0.05620158 0.11151725 0.114798285 0.085088365 0.11360684 0.1290724
0.20740804 0.23864943 0.22528891 0.23972604 0.23368542 0.19542804 0.124772854 0.0699252
-0.2358569 0.09761317 0.14169003 0.11370895 0.11882013 0.07580658 -0.041178327 -0.1228071
0.020222481 0.14152312 0.16429685 0.07909848 -0.07160648 -0.11562028 -0.03477929 -0.014419151
-0.24915275 0.02841383 0.21763255 0.35342515 0.25652295 -0.10237392 -0.38539034 -0.027850814
-0.05462808 0.005873397 0.0027263088 0.0913376 0.13481581 0.07020657 -0.013522513 -0.04922808
0.1970795 0.23788708 0.296784 0.22242178 0.09320053 0.11422761 0.4719717 -0.06130522
-0.015789943 0.0482901 -0.009604695 -0.017334627 0.01163838 -0.09374372 -0.10211015 0.03251238
-0.04046932 0.030176068 -0.07593945 -0.056115206 0.038935352 0.067238525 -0.25463244 -0.8086614
0.156293 -0.029731747 -0.07222147 -0.085942745 -0.07852833 -0.074723125 0.007696945 0.056460653
-0.2120119 -0.112971894 0.08324267 0.22023192 0.21592465 0.36988306 0.116987206 -0.1432266
-0.012742953 -0.2016883 0.13657285 0.21303366 0.05374491 -0.11977492 -0.025148606 0.44534284
0.09121339 -0.2042173 -0.32145277 -0.39404994 -0.09781255 0.025859294 -0.23132375 0.27136567
0.14636058 0.19809653 0.15018184 0.015601221 -0.067090206 -0.089197055 -0.072660476 -0.02184202
-0.012614965 -0.032866422 0.027185127 0.06259055 0.06946849 0.03757936 -0.047656342 -0.16240817
0.5411274 0.5326436 0.26194423 -0.43289733 -0.4676763 -0.25864074 -0.055256158 -0.071596555
-0.20714302 -0.2423826 -0.11884497 -0.20463242 -0.30530426 -0.31386247 0.1892036 0.115827195
-0.2053839 -0.13658118 -0.07212102 -0.07490342 -0.043089148 -0.11078408 0.05353739 0.3924436
0.05528107 -0.05288477 -0.22086094 -0.2057081 0.019969357 0.013857079 -0.26110315 0.118417054
-0.06404087 0.09952029 -0.00726032 -0.052370813 -0.02639593 -0.03274334 0.049499586 -0.06077224
0.49915558 0.41541168 0.29148647 0.18852052 0.11186318 0.12859324 -0.010720188 -0.23051192
0.060522992 0.12657082 0.046951957 -0.043990325 -0.06685949 -0.046954706 0.0274487 0.124486804
0.16836709 -0.12517014 -0.18142222 -0.12598939 -0.06527356 -0.062344562 -0.11054268 -0.100784734
00000000: 9294 5cbe fdff 3b3d d715 d43d 04ee edbd
00000010: 490a 62be d357 113d 3f63 243e d201 003e
00000020: 7508 f63d 529e 6bbe 1ff0 28be 533a f9bd
00000030: 6ae4 b3bd 839b 683c f942 d23e b0ba 0cbd
00000040: ee6a e33c adb9 9abd c9dc 663d 854e eabb
00000050: e81e 7dbc 46dc a5bc ffc4 2f3c bc92 63bd
00000060: b24e 863e 95d1 493e d38b 033e 251b b0bd
00000070: 56f0 71be eeb0 6c3e 0fbd 603f 2c7b 26bf
00000080: 44fc dbbd 0a1d c4bd 107a 033e e924 4f3e
00000090: bddb 9c3e 7c01 adbc 8660 00be 6abe 343c
000000a0: 02a3 d8bd 6a71 0c3d de44 4a3d 201d cc3d
000000b0: 6180 0c3e ec85 73bd 481d 08bf 34e4 883e
000000c0: 1bd8 adbd 5d49 073d aa71 4d3e d572 e73e
000000d0: 93e5 7a3e 4935 643e 2398 9ebc 54dd 15be
000000e0: 552c a23e 2349 f73d 9c5a 503e 4418 803e
000000f0: b80f 063e 3b35 1a3c fe21 8a3e 33f2 8bbd
00000100: 129c 3dbe 8a7d 87bd d415 cc3b a52a 15bd
00000110: b66e a3bd 0789 47bd 8b03 afbb 7231 20bc
00000120: 5e3f 233d 8c82 a53c a133 663d 2863 e43d
00000130: 5d1b eb3d cf42 ae3d b4aa e83d 8e2b 043e
00000140: c662 543e 8460 743e 23b2 663e be7a 753e
00000150: 3b4b 6f3e 4a1e 483e e988 ff3d f134 8f3d
00000160: 7984 71be 6ae9 c73d 3117 113e 3de0 e83d
00000170: f857 f33d 7b40 9b3d 9baa 28bd 4a82 fbbd
00000180: 9ea9 a53c 70eb 103e 6f3d 283e 62fe a13d
00000190: 6ba6 92bd 53ca ecbd bb74 0ebd 4d3e 6cbc
000001a0: e621 7fbe 1fc4 e83c 11db 5e3e 24f4 b43e
000001b0: fa56 833e 6ba9 d1bd e251 c5be 6427 e4bc
000001c0: b2c1 5fbd a075 c03b dfab 323b 350f bb3d
000001d0: 280d 0a3e 76c8 8f3d 888d 5dbc 62a3 49bd
000001e0: 35cf 493e ac98 733e 13f4 973e 89c2 633e
000001f0: ebdf be3d 2af0 e93d 46a6 f13e 2f1b 7bbd
00000200: e959 81bc d7cb 453d 035d 1dbc 5901 8ebc
00000210: e7ae 3e3c b5fc bfbd 201f d1bd b42b 053d
00000220: 28c3 25bd cd33 f73c 2486 9bbd 0fd9 65bd
00000230: ad7a 1f3d 5ab4 893d 2f5f 82be 6f04 4fbf
00000240: 460b 203e fe8f f3bc dae8 93bd c002 b0bd
00000250: 76d3 a0bd 7008 99bd a836 fc3b 4943 673d
00000260: a619 59be cf5d e7bd 227b aa3d 7a84 613e
00000270: 5a1b 5d3e 5061 bd3e fd96 ef3d fea9 12be
00000280: d2c7 50bc 6187 4ebe c1d9 0b3e 7f25 5a3e
00000290: 9f23 5c3d 8e4c f5bd 7304 cebc fa03 e43e
000002a0: 16ce ba3d 571e 51be 7595 a4be eac0 c9be
000002b0: f251 c8bd dfd6 d33c 22e0 6cbe 71f0 8a3e
000002c0: 8cdf 153e d1d9 4a3e 45c9 193e 439c 7f3c
000002d0: 9766 89bd f2ac b6bd 04cf 94bd 09ee b2bc
000002e0: 00af 4ebc f19e 06bd 58b3 de3c 792f 803d
000002f0: 7f45 8e3d d1ec 193d 4c33 43bd 544e 26be
00000300: 5387 0a3f 555b 083f 8e1d 863e b8a4 ddbe
00000310: 4573 efbe 8f6c 84be 4854 62bd 37a1 92bd
00000320: 4d1d 54be 2533 78be fe64 f3bd 298b 51be
00000330: d750 9cbe 95b2 a0be 97be 413e cf36 ed3d
00000340: 2850 52be f0db 0bbe 2fb4 93bd f766 99bd
00000350: 3f7e 30bd c4e2 e2bd 064a 5b3d 5eee c83e
00000360: 676e 623d b39d 58bd 5f29 62be 25a5 52be
00000370: c796 a33c cd08 633c 50af 85be a484 f23d
00000380: dc27 83bd 4bd1 cb3d fae7 edbb c782 56bd
00000390: 473c d8bc e11d 06bd 14c0 4a3d 50ec 78bd
000003a0: 5291 ff3e d7b0 d43e b73d 953e 860b 413e
000003b0: 8618 e53d f2ad 033e baa3 2fbc 510b 6cbe
000003c0: f5e6 773d c89b 013e b250 403d 332f 34bd
000003d0: a1ed 88bd 9453 40bd 19dc e03c f0f2 fe3d
000003e0: 6c68 2c3e 9a2c 00be bfc6 39be 5d03 01be
000003f0: 25ae 85bd 035d 7fbd 3364 e2bd 3a68 cebd

rnn.weight_hh_l0 f4 [512, 128]
-0.023447158 0.11786626 -0.04919008 -0.01935689 -0.0061919685 0.021966258 0.08840775 0.18128456
0.041955333 -0.1824271 0.10775524 -0.018752249 -0.15371531 0.18363954 0.17682916 -0.036397938
-0.021113867 -0.029681629 -0.01916704 0.59891826 0.0439938 -0.27082124 0.014379455 0.108530976
-0.100238 0.08466426 0.23752774 0.056394547 0.024578633 -0.123173445 0.0034534093 -0.015001111
-0.030996142 -0.07420034 0.10516761 0.084976606 0.090755366 -0.2406316 -0.048597973 -0.040375307
0.31894743 -0.021649297 0.06259857 0.0459028 0.052945413 0.107688665 0.10345609 0.03994396
0.15659049 0.116274945 0.076880895 0.29914305 -0.050742522 -0.12807581 -0.12896946 0.011139164
-0.08112425 -0.06567443 0.16501051 0.03361897 0.039289415 0.057037912 0.060874034 0.066914245
-0.061558947 0.033861104 0.3028881 -0.05014574 -7.6335375e-05 0.04993661 0.037595447 0.06436531
0.22412546 -0.015298086 -0.09213704 0.031296838 0.1887908 -0.1399142 0.015735356 0.06527762
-0.15879463 -0.0758021 -0.15526864 0.25964972 0.037219893 -0.2170661 0.14823301 0.13855895
-0.11800337 -0.077346265 -0.020365803 -0.3566142 0.24562192 -0.0060011744 -0.21296415 0.012571445
0.5218898 0.17351104 -0.07178033 0.031861223 -0.066991754 -0.016115515 0.08971641 0.15971544
0.1501763 -0.0059143878 -0.032275252 -0.02579519 0.024438836 -0.06626504 -0.28777203 0.20004095
0.0634883 -0.072504245 -0.21102983 0.03884229 -0.007417493 -0.10404431 0.032537274 0.03495692
0.07998465 0.043542456 -0.026650717 0.12173102 0.036456168 0.17352957 0.06202352 -0.06849866
0.17708851 -0.13802885 0.08197533 -0.34012783 -0.06350531 -0.041214596 0.25130612 0.05069893
-0.17409731 0.22622383 -0.08643002 0.14566144 -0.005103284 0.29862466 -0.21269383 -0.084626764
0.024197144 -0.029587798 0.07431688 -0.012048573 -0.26455563 -0.24768528 0.17346114 -0.12060602
0.012455786 -0.094465174 -0.0151574835 -0.25531045 -0.05187925 0.041078288 -0.13043769 -0.036763716
0.06693398 0.051547416 0.04163368 0.13902009 0.13375627 -0.23630872 0.15937163 0.008956737
-0.14144205 -0.19378687 -0.07311978 -0.059048247 -0.19947255 -0.016488316 0.019963736 -0.021882562
-0.39475536 0.03993679 0.07380009 -0.23118418 0.0051761786 -0.07354195 0.080202654 0.03183584
0.04257968 0.119631074 -0.21292901 0.101711914 0.08431714 -0.05241716 -0.017785797 -0.37431014
0.060454305 0.23551935 -0.11468127 0.0818473 -0.12756217 0.04200938 -0.11432875 -0.14369771
-0.018864818 -0.087688714 -0.08545328 0.04788509 -0.45380765 -0.09236748 0.046066664 0.42816287
-0.26772535 0.070428155 0.15560675 -0.3021213 0.06262313 -0.43522727 -0.10247005 -0.014385789
0.13146044 0.084292464 0.045020603 -0.3409062 -0.279137 0.31945282 0.16972604 -0.14617287
0.04619627 -0.17398533 -0.19249873 0.36248502 0.46899882 0.1340927 0.12152645 0.12181092
-0.21098435 -0.09985643 0.3474752 0.022631565 -0.065865956 0.09997351 -0.0138463825 -0.21962643
-0.14547056 0.24067995 0.042614315 0.120317936 0.031826075 0.2947923 0.03786384 -0.27575466
0.08155394 -0.013200273 -0.02034869 0.19936877 0.00827887 0.1442228 -0.14400949 -0.11171264
00000000: 4114 c0bc de63 f13d 8a7b 49bd 5792 9ebc
00000010: ffe5 cabb 95f2 b33c 1f0f b53d a9a2 393e
00000020: 5bd9 2b3d 2bce 3abe c7ae dc3d 519e 99bc
00000030: 8c67 1dbe 010c 3c3e b412 353e 0116 15bd
00000040: fdf6 acbc e326 f3bc 3204 9dbc b552 193f
00000050: d832 343d 15a9 8abe ce97 6b3c 7d45 de3d
00000060: 9549 cdbd 7564 ad3d 793a 733e f8fd 663d
00000070: 2159 c93c 5c42 fcbd 9852 623b 38c7 75bc
00000080: 9feb fdbc 59f6 97bd 1e62 d73d 3708 ae3d
00000090: f3dd b93d 2168 76be ab0e 47bd 9460 25bd
000000a0: 144d a33e de59 b1bc ae33 803d 9304 3c3d
000000b0: 4add 583d e08b dc3d c9e0 d33d 479c 233d
000000c0: 4259 203e 8f21 ee3d bb73 9d3d 4729 993e
000000d0: 64d7 4fbd 4e26 03be 9210 04be 0a81 363c
000000e0: 7924 a6bd 5180 86bd 84f8 283e 0cb4 093d
000000f0: f0ed 203d 96a0 693d 0d57 793d 560a 893d
00000100: 3c25 7cbd f1b1 0a3d 2614 9b3e 9f65 4dbd
00000110: 3e16 a0b8 558a 4c3d affd 193d f6d1 833d
00000120: 2581 653e d3a4 7abc 58b2 bcbd 1d31 003d
00000130: 6052 413e ab45 0fbe 6fe7 803c 46b0 853d
00000140: 0f9b 22be 223e 9bbd befe 1ebe cff0 843e
00000150: e373 183d 9346 5ebe 65ca 173e 66e2 0d3e
00000160: c0ab f1bd b867 9ebd 2fd6 a6bc 2396 b6be
00000170: 5084 7b3e 80a5 c4bb 4613 5abe 76f8 4d3c
00000180: 929a 053f e1ac 313e 9101 93bd ea80 023d
00000190: f932 89bd af04 84bc 3dbd b73d 728c 233e
000001a0: d1c7 193e 7bcd c1bb 0e33 04bd 6f50 d3bc
000001b0: f433 c83c f7b5 87bd db56 93be 89d7 4c3e
000001c0: 2706 823d 1b7d 94bd 3418 58be 1819 1f3d
000001d0: 710e f3bb 2f15 d5bd ce45 053d fd2e 0f3d
000001e0: fece a33d 9359 323d 9b52 dabc 1d4e f93d
000001f0: 1053 153d bcb1 313e 600c 7e3d 0749 8cbd
00000200: b156 353e 6f57 0dbe afe2 a73d 3c25 aebe
00000210: 120f 82bd a3d0 28bd 32ab 803e aea9 4f3d
00000220: 9146 32be 38a7 673e 3902 b1bd 4628 153e
00000230: 7339 a7bb 55e5 983e 69cc 59be cc50 adbd
00000240: 1739 c63c 1c62 f2bc 7333 983d 6167 45bc
00000250: d673 87be 36a1 7dbe cc9f 313e 4a00 f7bd
00000260: 5a13 4c3c f576 c1bd 1857 78bc 0db8 82be
00000270: 567f 54bd b541 283d 7591 05be 8d95 16bd
00000280: af14 893d 6223 533d 1488 2a3d 485b 0e3e
00000290: 67f7 083e eafa 71be 5132 233e 47bf 123c
000002a0: 2fd6 10be 1170 46be d3bf 95bd 93dc 71bd
000002b0: 8842 4cbe 8112 87bc fd8a a33c 0f43 b3bc
000002c0: 601d cabe c294 233d 8024 973d 8cbb 6cbe
000002d0: ef9c a93b 299d 96bd 4a41 a43d 4c66 023d
000002e0: 0868 2e3d 2301 f53d 100a 5abe 564e d03d
000002f0: 77ae ac3d 60b3 56bd 85b3 91bc 94a5 bfbe
00000300: ef9e 773d fc2b 713e 04de eabd 8f9f a73d
00000310: a89f 02be 0712 2c3d 3125 eabd 7e25 13be
00000320: 648a 9abc 2496 b3bd 2102 afbd 2823 443d
00000330: 7a59 e8be 292b bdbd 66b0 3c3d 2a38 db3e
00000340: 4c13 89be a33c 903d 6057 1f3e a5af 9abe
00000350: 8e40 803d 1cd6 debe d1db d1bd 5fb2 6bbc
00000360: 919d 063e 87a1 ac3d 8667 383d 428b aebe
00000370: 0beb 8ebe 528f a33e aacc 2d3e 57ae 15be
00000380: 4d38 3d3d 3629 32be 631e 45be a397 b93e
00000390: 9d20 f03e 994f 093e dce2 f83d 0178 f93d
000003a0: 480c 58be 8781 ccbd 45e8 b13e d565 b93c
000003b0: bbe4 86bd e9be cc3d f0db 62bc c0e5 60be
000003c0: 3cf6 14be ce74 763e 598c 2e3d 4069 f63d
000003d0: 0f5c 023d 04ef 963e 1d17 1b3d b72f 8dbe
000003e0: c105 a73d f545 58bc 4cb2 a6bc 5427 4c3e
000003f0: 19a4 073c 24af 133e 3977 13be 99c9 e4bd

rnn.bias_ih_l0 f4 [512]
-0.25621665 -0.2852339 -0.23657446 -0.6104561 -0.48750183 -0.37245208 -0.51139987 -0.49554962
-0.42659438 0.24583207 -0.07086365 -0.42040536 -0.047048394 -0.01016452 -0.52231044 -0.51849866
-0.33859402 -0.42318022 -0.4819793 -0.08374643 -0.84299403 -0.32236835 -0.53494513 -0.46118623
-0.6142256 -0.6524897 -0.18664168 -0.04820043 -0.42083013 -0.36248827 -0.15128896 -0.14225729
-0.3530983 -0.8282915 -0.13371739 -0.287389 -0.7537615 -0.08606745 -0.8243948 -0.2583864
-0.13347691 -0.13389185 -0.28332168 -0.5352336 -0.3390776 -0.8448684 -0.83357215 -0.5213093
-0.1029777 -0.67117304 -0.37374246 -0.42751652 -0.33322075 -0.43163168 0.00030911228 -0.70063967
-0.56925774 -0.44304532 0.1850959 -0.5925257 -0.7813824 -0.34008625 -0.1877948 -0.47098827
-0.30862185 -0.47279423 -0.15302512 -0.3522721 -0.32938325 -0.7051467 -0.10396859 -0.4464773
-0.31937033 -0.21769308 0.066002645 0.20960277 0.044636846 -0.6939563 -0.7463442 0.023474254
-0.11675998 -0.19046342 -0.4536481 0.07202327 -0.18502471 -0.16107877 -0.6554742 -0.8580532
0.75438654 -0.4052773 -0.3560563 -0.20784447 -0.36558646 -0.046343714 -0.20549622 -0.16058534
-0.21013066 -0.23207904 -0.9907496 0.099101536 -0.061679497 -0.6162863 -0.03578579 0.007637086
-0.04414275 -0.49733052 -0.075441316 -0.254129 -0.4985889 -0.3836301 -0.06504461 0.02584546
-0.049178585 -0.37072393 -0.26692915 -0.23533534 -0.26599357 -0.5330513 -0.7276287 -0.024756556
0.1914147 -0.37511796 -0.6678804 -0.41347894 -0.43486962 -0.28945816 -0.31817752 -0.07375717
-0.016998814 0.5288949 0.25800276 0.109479494 -0.17918956 -0.015361238 -0.19071625 -0.2634821
-0.10748481 0.15240821 0.0022948186 -0.15139036 -0.3505218 -0.063887104 -0.16817656 -0.18345472
-0.092632934 -0.17233282 -0.08471003 0.13395458 -0.19897191 -0.074217245 -0.41716734 -0.13688996
-0.15316507 -0.19981606 -0.104720294 0.25878075 -0.20497048 -0.1532651 0.060778785 0.04184228
-0.11813917 -0.3365271 0.2370175 0.08172722 -0.322377 -0.03772184 -0.23402877 0.056261897
0.016868064 -0.17895573 0.3205406 -0.044564344 -0.20922793 -0.18326762 -0.6056136 -0.29912362
-0.023692016 -0.11937003 -0.3927524 -0.09878195 -0.3194716 -0.20353375 0.04246517 0.33712342
-0.14110363 -0.13233873 -0.19132379 -0.26970485 -0.30737522 -0.10907186 -0.06619139 -0.1761373
0.8831237 -0.15267149 0.018070612 -0.10032085 -0.14138936 -0.27551183 -0.017667213 -0.14787138
-0.15527067 0.11888487 0.25001475 -0.25619996 0.09664811 -0.21724744 -0.48020694 0.24358231
-0.1848227 0.13837603 -0.14638881 -0.08253333 0.030655075 0.40598577 0.06449898 -0.18661116
0.23991126 -0.18540303 -0.13261172 0.06567269 -0.308844 -0.068175636 0.51497 -0.13587843
-0.07760498 -0.036513876 -0.17707413 0.029682083 -0.09649272 -0.15207164 0.10989636 -0.043274704
-0.064776875 -0.19851685 -0.17096317 -0.09642876 -0.20234296 -0.053789273 -0.07061872 0.24054013
0.3176913 -0.22861761 0.31173262 0.1472865 -0.108605 -0.07939319 -0.3183251 -0.14144614
0.206741 -0.13601768 0.13536097 -0.11052177 -0.2986929 -0.018656947 -0.10879603 -0.064354986
00000000: d42e 83be 2e0a 92be 9340 72be da46 1cbf
00000010: d799 f9be 0ab2 bebe 1aeb 02bf aeb8 fdbe
00000020: 946a dabe 67bb 7b3e f620 91bd 5f3f d7be
00000030: d1b5 40bd 1689 26bc 23b6 05bf 54bc 04bf
00000040: 325c adbe 14ab d8be fec5 f6be 4083 abbd
00000050: 75ce 57bf 770d a5be 2af2 08bf 9a20 ecbe
00000060: e43d 1dbf 9109 27bf ff1e 3fbe d06d 45bd
00000070: 0c77 d7be 1098 b9be 7eeb 1abe e5ab 11be
00000080: 4dc9 b4be e90a 54bf 36ed 08be a724 93be
00000090: 83f6 40bf 2244 b0bd 8a0b 53bf 394b 84be
000000a0: 2cae 08be f21a 09be 8a0f 91be 1205 09bf
000000b0: 949b adbe 4c49 58bf fc64 55bf 8774 05bf
000000c0: f9e5 d2bd ffd1 2bbf 2c5b bfbe 72e3 dabe
000000d0: e99b aabe d4fe dcbe 5910 a239 1f5d 33bf
000000e0: e0ba 11bf d6d6 e2be c889 3d3e c4af 17bf
000000f0: ad08 48bf c91f aebe 484d 40be 6025 f1be
00000100: af03 9ebe 1612 f2be 9eb2 1cbe 025d b4be
00000110: eca4 a8be 7e84 34bf 7ced d4bd ac98 e4be
00000120: 8284 a3be efea 5ebe 652c 873d 1ca2 563e
00000130: 20d5 363d 1fa7 31bf 6a10 3fbf 144d c03c
00000140: db1f efbd d808 43be 9044 e8be f080 933d
00000150: 1e77 3dbe d5f1 24be 28cd 27bf 60a9 5bbf
00000160: 7a1f 413f 8280 cfbe 034d b6be 2ed5 54be
00000170: 262e bbbe e8d2 3dbd 9a6d 52be 7c70 24be
00000180: 7e2c 57be 21a6 6dbe c4a1 7dbf bff5 ca3d
00000190: a4a3 7cbd f0c4 1dbf 1f94 12bd 8540 fa3b
000001a0: 07cf 34bd 1ba2 febe fa80 9abd 321d 82be
000001b0: 0b47 ffbe 2a6b c4be 1c36 85bd dcb9 d33c
000001c0: 7c6f 49bd 87cf bdbe f0aa 88be bffb 70be
000001d0: 4f30 88be 0d76 08bf e045 3abf 43ce cabc
000001e0: 3702 443e 760f c0be 36fa 2abf 83b3 d3be
000001f0: 3ba7 debe dc33 94be 2ae8 a2be 000e 97bd
00000200: 1941 8bbc a865 073f f018 843e c936 e03d
00000210: 787d 37be b4ad 7bbc 1f4b 43be 20e7 86be
00000220: ff20 dcbd e610 1c3e ab64 163b 1306 1bbe
00000230: 9877 b3be 3ed7 82bd 7a36 2cbe 8edb 3bbe
00000240: 56b6 bdbd 0478 30be 747c adbd 642b 093e
00000250: 4bbf 4bbe 36ff 97bd f596 d5be e22c 0cbe
00000260: 4ed7 1cbe 959c 4cbe 9877 d6bd e97e 843e
00000270: c8e3 51be 87f1 1cbe 2df3 783d d062 2b3d
00000280: f3f2 f1bd 484d acbe b7b4 723e 9a60 a73d
00000290: 990e a5be 3782 1abd 3da5 6fbe e072 663d
000002a0: e52e 8a3c 2c40 37be e61d a43e 1a89 36bd
000002b0: d93f 56be 82aa 3bbe 7e09 1bbf bb26 99be
000002c0: c215 c2bc 4678 f4bd d816 c9be 314e cabd
000002d0: c891 a3be 276b 50be f5ef 2d3d 719b ac3e
000002e0: 787d 10be ce83 07be 62ea 43be c116 8abe
000002f0: 4960 9dbe 1161 dfbd 5a8f 87bd 565d 34be
00000300: 6514 623f ea55 1cbe d208 943c 0575 cdbd
00000310: 5fc8 10be e30f 8dbe d5ba 90bc 986b 17be
00000320: 46ff 1ebe e979 f33d ef01 803e a42c 83be
00000330: 72ef c53d 1d76 5ebe afdd f5be a46d 793e
00000340: 2942 3dbe 72b2 0d3e f3e6 15be 3c07 a9bd
00000350: 5a20 fb3c 5edd cf3e 0b18 843d ff16 3fbe
00000360: 4cab 753e 4bda 3dbe 5ecb 07be 677f 863d
00000370: cd20 9ebe ab9f 8bbd 13d5 033f b723 0bbe
00000380: 5cef 9ebd 938f 15bd ec52 35be d727 f33c
00000390: fa9d c5bd abb8 1bbe 5811 e13d d140 31bd
000003a0: bda9 84bd 0048 4bbe f810 2fbe 717c c5bd
000003b0: fe32 4fbe 2452 5cbd 8ca0 90bd 2750 763e
000003c0: 6fa8 a23e bc1a 6abe 6b9b 9f3e 46d2 163e
000003d0: 4c6c debd e698 a2bd 82fb a2be 42d7 10be
000003e0: eab3 533e 3848 0bbe 119c 0a3e 3d59 e2bd
000003f0: 47ee 98be 74d6 98bc 74d0 debd 8ccc 83bd

rnn.bias_hh_l0 f4 [512]
-0.25621665 -0.2852339 -0.23657446 -0.6104561 -0.48750183 -0.37245208 -0.51139987 -0.49554962
-0.42659438 0.24583207 -0.07086365 -0.42040536 -0.047048394 -0.01016452 -0.52231044 -0.51849866
-0.33859402 -0.42318022 -0.4819793 -0.08374643 -0.84299403 -0.32236835 -0.53494513 -0.46118623
-0.6142256 -0.6524897 -0.18664168 -0.04820043 -0.42083013 -0.36248827 -0.15128896 -0.14225729
-0.3530983 -0.8282915 -0.13371739 -0.287389 -0.7537615 -0.08606745 -0.8243948 -0.2583864
-0.13347691 -0.13389185 -0.28332168 -0.5352336 -0.3390776 -0.8448684 -0.83357215 -0.5213093
-0.1029777 -0.67117304 -0.37374246 -0.42751652 -0.33322075 -0.43163168 0.00030911228 -0.70063967
-0.56925774 -0.44304532 0.1850959 -0.5925257 -0.7813824 -0.34008625 -0.1877948 -0.47098827
-0.30862185 -0.47279423 -0.15302512 -0.3522721 -0.32938325 -0.7051467 -0.10396859 -0.4464773
-0.31937033 -0.21769308 0.066002645 0.20960277 0.044636846 -0.6939563 -0.7463442 0.023474254
-0.11675998 -0.19046342 -0.4536481 0.07202327 -0.18502471 -0.16107877 -0.6554742 -0.8580532
0.75438654 -0.4052773 -0.3560563 -0.20784447 -0.36558646 -0.046343714 -0.20549622 -0.16058534
-0.21013066 -0.23207904 -0.9907496 0.099101536 -0.061679497 -0.6162863 -0.03578579 0.007637086
-0.04414275 -0.49733052 -0.075441316 -0.254129 -0.4985889 -0.3836301 -0.06504461 0.02584546
-0.049178585 -0.37072393 -0.26692915 -0.23533534 -0.26599357 -0.5330513 -0.7276287 -0.024756556
0.1914147 -0.37511796 -0.6678804 -0.41347894 -0.43486962 -0.28945816 -0.31817752 -0.07375717
-0.016998814 0.5288949 0.25800276 0.109479494 -0.17918956 -0.015361238 -0.19071625 -0.2634821
-0.10748481 0.15240821 0.0022948186 -0.15139036 -0.3505218 -0.063887104 -0.16817656 -0.18345472
-0.092632934 -0.17233282 -0.08471003 0.13395458 -0.19897191 -0.074217245 -0.41716734 -0.13688996
-0.15316507 -0.19981606 -0.104720294 0.25878075 -0.20497048 -0.1532651 0.060778785 0.04184228
-0.11813917 -0.3365271 0.2370175 0.08172722 -0.322377 -0.03772184 -0.23402877 0.056261897
0.016868064 -0.17895573 0.3205406 -0.044564344 -0.20922793 -0.18326762 -0.6056136 -0.29912362
-0.023692016 -0.11937003 -0.3927524 -0.09878195 -0.3194716 -0.20353375 0.04246517 0.33712342
-0.14110363 -0.13233873 -0.19132379 -0.26970485 -0.30737522 -0.10907186 -0.06619139 -0.1761373
0.8831237 -0.15267149 0.018070612 -0.10032085 -0.14138936 -0.27551183 -0.017667213 -0.14787138
-0.15527067 0.11888487 0.25001475 -0.25619996 0.09664811 -0.21724744 -0.48020694 0.24358231
-0.1848227 0.13837603 -0.14638881 -0.08253333 0.030655075 0.40598577 0.06449898 -0.18661116
0.23991126 -0.18540303 -0.13261172 0.06567269 -0.308844 -0.068175636 0.51497 -0.13587843
-0.07760498 -0.036513876 -0.17707413 0.029682083 -0.09649272 -0.15207164 0.10989636 -0.043274704
-0.064776875 -0.19851685 -0.17096317 -0.09642876 -0.20234296 -0.053789273 -0.07061872 0.24054013
0.3176913 -0.22861761 0.31173262 0.1472865 -0.108605 -0.07939319 -0.3183251 -0.14144614
0.206741 -0.13601768 0.13536097 -0.11052177 -0.2986929 -0.018656947 -0.10879603 -0.064354986
00000000: d42e 83be 2e0a 92be 9340 72be da46 1cbf
00000010: d799 f9be 0ab2 bebe 1aeb 02bf aeb8 fdbe
00000020: 946a dabe 67bb 7b3e f620 91bd 5f3f d7be
00000030: d1b5 40bd 1689 26bc 23b6 05bf 54bc 04bf
00000040: 325c adbe 14ab d8be fec5 f6be 4083 abbd
00000050: 75ce 57bf 770d a5be 2af2 08bf 9a20 ecbe
00000060: e43d 1dbf 9109 27bf ff1e 3fbe d06d 45bd
00000070: 0c77 d7be 1098 b9be 7eeb 1abe e5ab 11be
00000080: 4dc9 b4be e90a 54bf 36ed 08be a724 93be
00000090: 83f6 40bf 2244 b0bd 8a0b 53bf 394b 84be
000000a0: 2cae 08be f21a 09be 8a0f 91be 1205 09bf
000000b0: 949b adbe 4c49 58bf fc64 55bf 8774 05bf
000000c0: f9e5 d2bd ffd1 2bbf 2c5b bfbe 72e3 dabe
000000d0: e99b aabe d4fe dcbe 5910 a239 1f5d 33bf
000000e0: e0ba 11bf d6d6 e2be c889 3d3e c4af 17bf
000000f0: ad08 48bf c91f aebe 484d 40be 6025 f1be
00000100: af03 9ebe 1612 f2be 9eb2 1cbe 025d b4be
00000110: eca4 a8be 7e84 34bf 7ced d4bd ac98 e4be
00000120: 8284 a3be efea 5ebe 652c 873d 1ca2 563e
00000130: 20d5 363d 1fa7 31bf 6a10 3fbf 144d c03c
00000140: db1f efbd d808 43be 9044 e8be f080 933d
00000150: 1e77 3dbe d5f1 24be 28cd 27bf 60a9 5bbf
00000160: 7a1f 413f 8280 cfbe 034d b6be 2ed5 54be
00000170: 262e bbbe e8d2 3dbd 9a6d 52be 7c70 24be
00000180: 7e2c 57be 21a6 6dbe c4a1 7dbf bff5 ca3d
00000190: a4a3 7cbd f0c4 1dbf 1f94 12bd 8540 fa3b
000001a0: 07cf 34bd 1ba2 febe fa80 9abd 321d 82be
000001b0: 0b47 ffbe 2a6b c4be 1c36 85bd dcb9 d33c
000001c0: 7c6f 49bd 87cf bdbe f0aa 88be bffb 70be
000001d0: 4f30 88be 0d76 08bf e045 3abf 43ce cabc
000001e0: 3702 443e 760f c0be 36fa 2abf 83b3 d3be
000001f0: 3ba7 debe dc33 94be 2ae8 a2be 000e 97bd
00000200: 1941 8bbc a865 073f f018 843e c936 e03d
00000210: 787d 37be b4ad 7bbc 1f4b 43be 20e7 86be
00000220: ff20 dcbd e610 1c3e ab64 163b 1306 1bbe
00000230: 9877 b3be 3ed7 82bd 7a36 2cbe 8edb 3bbe
00000240: 56b6 bdbd 0478 30be 747c adbd 642b 093e
00000250: 4bbf 4bbe 36ff 97bd f596 d5be e22c 0cbe
00000260: 4ed7 1cbe 959c 4cbe 9877 d6bd e97e 843e
00000270: c8e3 51be 87f1 1cbe 2df3 783d d062 2b3d
00000280: f3f2 f1bd 484d acbe b7b4 723e 9a60 a73d
00000290: 990e a5be 3782 1abd 3da5 6fbe e072 663d
000002a0: e52e 8a3c 2c40 37be e61d a43e 1a89 36bd
000002b0: d93f 56be 82aa 3bbe 7e09 1bbf bb26 99be
000002c0: c215 c2bc 4678 f4bd d816 c9be 314e cabd
000002d0: c891 a3be 276b 50be f5ef 2d3d 719b ac3e
000002e0: 787d 10be ce83 07be 62ea 43be c116 8abe
000002f0: 4960 9dbe 1161 dfbd 5a8f 87bd 565d 34be
00000300: 6514 623f ea55 1cbe d208 943c 0575 cdbd
00000310: 5fc8 10be e30f 8dbe d5ba 90bc 986b 17be
00000320: 46ff 1ebe e979 f33d ef01 803e a42c 83be
00000330: 72ef c53d 1d76 5ebe afdd f5be a46d 793e
00000340: 2942 3dbe 72b2 0d3e f3e6 15be 3c07 a9bd
00000350: 5a20 fb3c 5edd cf3e 0b18 843d ff16 3fbe
00000360: 4cab 753e 4bda 3dbe 5ecb 07be 677f 863d
00000370: cd20 9ebe ab9f 8bbd 13d5 033f b723 0bbe
00000380: 5cef 9ebd 938f 15bd ec52 35be d727 f33c
00000390: fa9d c5bd abb8 1bbe 5811 e13d d140 31bd
000003a0: bda9 84bd 0048 4bbe f810 2fbe 717c c5bd
000003b0: fe32 4fbe 2452 5cbd 8ca0 90bd 2750 763e
000003c0: 6fa8 a23e bc1a 6abe 6b9b 9f3e 46d2 163e
000003d0: 4c6c debd e698 a2bd 82fb a2be 42d7 10be
000003e0: eab3 533e 3848 0bbe 119c 0a3e 3d59 e2bd
000003f0: 47ee 98be 74d6 98bc 74d0 debd 8ccc 83bd

mlp.0.weight f4 [64, 137]
-0.26247552 0.3653141 0.2070889 0.05875552 -0.046030782 -0.201178 -0.34782726 -0.4548203
-0.58173907 0.25526556 -0.10581693 -0.12548648 0.06410616 -0.009476538 0.09268358 -0.04344712
0.13746232 0.1659938 -0.20336494 0.2162004 -0.099120155 0.07777943 -0.16709416 0.12364265
-0.06327196 -0.09845953 -0.08421293 -0.025646197 0.30722636 0.10956322 0.019504648 -0.18371886
0.2478653 -0.15365714 -0.14136782 0.22645743 0.3343679 -0.00073148694 -0.042741805 0.0386758
0.0031877102 -0.1140443 -0.0828056 -0.043371808 -0.10013879 -0.65485865 -0.030588392 -0.042685296
-0.18707825 0.3775121 -0.024449782 0.048180267 0.2117406 0.15070961 0.1470008 0.04322502
-0.038012385 0.2252813 0.025261994 -0.07117669 0.0796985 0.072973095 0.0671439 -0.16363858
0.13559043 -0.34677124 -0.17456865 0.16658084 -0.15620445 0.0082756905 0.15932162 0.12111872
0.20957154 -0.018047025 -0.44777137 -0.08283137 -0.2998784 -0.23743391 0.06642415 -0.16522883
0.29863548 0.22645576 -0.11960821 -0.11545973 -0.09354779 0.38496548 -0.25569275 0.16896558
-0.16474845 0.009763607 0.0032083227 -0.1752889 0.16027035 -0.11025891 0.22387296 0.10412319
-0.23229851 -0.14377388 0.17509729 -0.12550661 -0.007113963 -0.09480903 -0.1358077 0.030374639
0.25972903 0.0741099 0.24744786 0.021962272 -0.11681 -0.28819126 -0.16216612 -0.15685183
-0.045396164 0.23859142 -0.09585882 -0.11977694 -0.13702682 0.107934065 -0.16472736 0.1079101
0.091660224 0.045891117 -0.0052378434 -0.1986922 -0.055591244 -0.0006691633 -0.22131582 0.0022167896
0.21374477 -0.03187117 -0.004149864 -0.021288328 -0.09119534 0.06635711 -0.033288743 0.17285948
0.0027150228 0.0030861131 -1.4730039 -1.2492062 -1.0024184 -0.72326124 -0.43048194 -0.13819838
0.1362379 0.33381453 -0.03281153 0.013030929 -0.052952476 -0.10702609 -0.42755717 0.1314015
-0.18254983 0.29945266 -0.09530135 -0.027079066 0.031561643 0.1305835 -0.07130466 -0.14590414
-0.05884976 0.033945516 -0.043585896 0.0020476787 0.012416137 0.016444521 -0.05136403 0.031512875
-0.5042298 -0.075134285 -0.08616958 0.008491464 0.032711193 0.10941966 -0.19416805 0.049669933
0.07491224 0.0119822435 0.015128964 -0.1277321 0.028773 0.022723554 0.087857574 0.12509829
-0.018050177 -0.025321377 -0.0044795303 0.032586258 -0.051113497 -0.13213469 0.07603925 0.10659942
0.606875 0.06224933 0.042138107 0.0038177304 0.03169498 -0.13946648 0.040184986 -0.035199996
-0.06012918 0.0034895092 -0.15583268 -0.032596312 0.01907397 -0.18321611 -0.012432386 -0.035137653
0.10496015 0.18614668 -0.022243178 -0.052560013 0.07748094 0.084285356 -0.0034432432 0.14911425
-0.02992181 -0.11083649 0.03187079 -0.13970375 -0.35610166 0.24183856 0.11278581 0.0008168141
0.08049168 -0.055332296 0.6230657 -0.04517186 0.093472995 0.025052004 -0.3172608 -0.013277308
0.121302314 0.015378663 0.2321344 -0.05267303 -0.21827292 -0.013708223 -0.011807817 -0.016902676
-0.34745923 0.06579394 0.08836241 0.17532595 0.020866912 -0.005009716 -0.15353315 0.061563563
0.0193259 0.03182078 -0.0066876374 -0.18482596 0.04096512 -0.14338237 0.54012007 0.06462531
00000000: 3163 86be 730a bb3e 1d0f 543e a1a9 703d
00000010: c68a 3cbd 9b01 4ebe 6a16 b2be 35de e8be
00000020: daec 14bf 2bb2 823e 8cb6 d8bd 877f 00be
00000030: 174a 833d 7b43 1bbc e4d0 bd3d 9bf5 31bd
00000040: ecc2 0c3e 47fa 293e e63e 50be a363 5d3e
00000050: 82ff cabd d24a 9f3d bb1a 2bbe 5c38 fd3d
00000060: bb94 81bd 26a5 c9bd d477 acbd f917 d2bc
00000070: c64c 9d3e ae62 e03d 36c8 9f3c cc20 3cbe
00000080: 67d0 7d3e 4c58 1dbe bac2 10be 75e4 673e
00000090: 4532 ab3e 42c1 3fba 0812 2fbd 846a 1e3d
000000a0: e7e8 503b 0f90 e9bd fb95 a9bd a3a6 31bd
000000b0: 9115 cdbd d1a4 27bf 8294 fabc c7d6 2ebd
000000c0: 7191 3fbe 4449 c13e e94a c8bc ac58 453d
000000d0: 87d2 583e 9f53 1a3e 6187 163e b80c 313d
000000e0: e0b2 1bbd 24b0 663e 3ef2 ce3c 16c5 91bd
000000f0: f838 a33d eb72 953d be82 893d df90 27be
00000100: 38d8 0a3e 008c b1be 20c2 32be 2b94 2a3e
00000110: 0ff4 1fbe c396 073c 3525 233e 170d f83d
00000120: ec99 563e 5bd7 93bc 4a42 e5be 7ea3 a9bd
00000130: a989 99be e021 73be 6209 883d bf31 29be
00000140: c0e6 983e 05e4 673e 26f5 f4bd 2776 ecbd
00000150: fc95 bfbd 321a c53e 29ea 82be 5005 2d3e
00000160: d1b3 28be 89f7 1f3c b942 523b ef7e 33be
00000170: e91d 243e 6ccf e1bd f43e 653e 8a3e d53d
00000180: a9df 6dbe 7639 13be b44c 333e ce84 00be
00000190: 3f1c e9bb 3d2b c2bd 2c11 0bbe 3cd4 f83c
000001a0: 34fb 843e eec6 973d f962 7d3e 39ea b33c
000001b0: 153a efbd ce8d 93be e00e 26be c49d 20be
000001c0: 54f1 39bd 4f51 743e a151 c4bd 9d4d f5bd
000001d0: c250 0cbe 890c dd3d 4aae 28be f8ff dc3d
000001e0: 5bb8 bb3d 53f8 3b3d 37a2 abbb f875 4bbe
000001f0: a5b3 63bd ca6a 2fba 9da0 62be 8f47 113b
00000200: e9df 5a3e 588b 02bd 95fb 87bb dc64 aebc
00000210: 9fc4 babd 3de6 873d c759 08bd 1302 313e
00000220: 86ee 313b 6340 4a3b 648b bcbf fde5 9fbf
00000230: 3f4f 80bf a627 39bf 2168 dcbe e083 0dbe
00000240: f381 0b3e bde9 aa3e 6265 06bd ad7f 553c
00000250: b2e4 58bd 7f30 dbbd c6e8 dabe 1d8e 063e
00000260: 58ee 3abe dc51 993e 5b2d c3bd ebd4 ddbc
00000270: c846 013d aeb7 053e 2d08 92bd e567 15be
00000280: 720c 71bd 740a 0b3d 2087 32bd 5932 063b
00000290: 0e6d 4b3c a9b6 863c 1763 52bd a513 013d
000002a0: 3415 01bf 01e0 99bd ad79 b0bd c81f 0b3c
000002b0: 2cfc 053d 6a17 e03d fdd3 46be b372 4b3d
000002c0: 976b 993d 2c51 443c 79df 773c 34cc 02be
000002d0: 5bb5 eb3c bf26 ba3c acee b33d c419 003e
000002e0: f7dd 93bc c76e cfbc 06c9 92bb 2b79 053d
000002f0: 635c 51bd 514e 07be 77ba 9b3d cc50 da3d
00000300: 295c 1b3f 27f9 7e3d 0299 2c3d e332 7a3b
00000310: 98d2 013d 4dd0 0ebe 0399 243d df2d 10bd
00000320: 044a 76bd 40b0 643b 9a92 1fbe b683 05bd
00000330: 0441 9c3c 019d 3bbe 35b1 4bbc 80ec 0fbd
00000340: 59f5 d63d 3c9d 3e3e 5337 b6bc 2b49 57bd
00000350: 54ae 9e3d cd9d ac3d 09a8 61bb 68b1 183e
00000360: 951e f5bc 3efe e2bd f28a 023d 800e 0fbe
00000370: f552 b6be 87a4 773e 3ffc e63d 771f 563a
00000380: d2d8 a43d 1ea4 62bd 3c81 1f3f 2106 39bd
00000390: c56e bf3d dc39 cd3c 0270 a2be 1189 59bc
000003a0: 596d f83d caf6 7b3c a4b4 6d3e adbf 57bd
000003b0: f082 5fbe 7498 60bc 9375 41bc 7b77 8abc
000003c0: 2de6 b1be f9be 863d 5af7 b43d a588 333e
000003d0: 16f1 aa3c 8b28 a4bb cb37 1dbe 132a 7c3d
000003e0: 5a51 9e3c 8256 023d f823 dbbb 0443 3dbe
000003f0: 0bcb 273d d4d2 12be 4f45 0a3f 465a 843d

mlp.0.bias f4 [64]
0.2167697 0.0046371436 0.06082374 0.31871688 0.19912574 0.22397642 0.16426763 0.37335467
0.08370949 0.22996244 0.19246784 -0.12368306 0.33778378 0.13066086 0.1915436 -0.1198629
0.22832827 0.24139097 0.20608774 -0.121208996 0.18905124 0.17922968 -0.06370262 0.24058689
0.17068364 0.039824404 -0.4504785 0.18945116 -0.12560008 0.25079057 -0.033885654 0.1836483
-0.20239644 0.08705739 0.10062538 0.13233432 0.1862897 0.16907744 -0.00010548654 0.041685984
0.21209425 0.26100153 0.20270109 0.2869929 0.23592 0.30481908 0.013123685 0.0028310001
0.17097947 -0.20246007 0.328583 -0.25760016 0.013629956 -0.2527221 0.18784072 -0.29681355
0.046369296 -0.1035307 0.10600722 0.08862496 -0.44902736 0.108279146 0.07431028 0.30291924
00000000: e0f8 5d3e 2ef3 973b 5022 793d dc2e a33e
00000010: 9ee7 4b3e 135a 653e c635 283e 5828 bf3e
00000020: e26f ab3d 467b 6b3e 4a16 453e 8b4d fdbd
00000030: fff1 ac3e f6cb 053e 0124 443e ae7a f5bd
00000040: e3ce 693e 322f 773e aa08 533e 6c3c f8bd
00000050: a696 413e fc87 373e 8576 82bd 695c 763e
00000060: b1c7 2e3e ea1e 233d 1ea5 e6be 7cff 413e
00000070: 4f9d 00be 9f67 803e afcb 0abd 4d0e 3c3e
00000080: 0341 4fbe 254b b23d ae14 ce3d a682 073e
00000090: bac2 3e3e a322 2d3e a838 ddb8 ecbe 2a3d
000000a0: 3c2f 593e fea1 853e e090 4f3e bcf0 923e
000000b0: 0395 713e 3f11 9c3e b904 573c 4d88 393b
000000c0: 3e15 2f3e b151 4fbe 083c a83e 2be4 83be
000000d0: 2e50 5f3c cb64 81be 5159 403e f2f7 97be
000000e0: bbed 3d3d e707 d4bd 501a d93d 0181 b53d
000000f0: eae6 e5be 75c1 dd3d fd2f 983d 3b18 9b3e

mlp.2.weight f4 [7, 64]
-0.067383446 3.1041197e-06 -0.0008458799 -0.14296816 -0.12884869 0.46379903 -0.08505846 0.34894028
0.11780196 -0.0607859 0.2845227 0.0047168625 -0.006206355 0.27374387 0.113461636 -0.0043609086
0.23278001 -0.117506824 0.43829295 -0.0041988394 -0.018494656 -0.19572875 -0.0012621819 -0.22663854
0.061121 0.026193818 0.0020969056 0.12182102 -0.03180266 0.00093998987 0.0066719013 0.001679049
-0.009366297 0.050763115 0.026763143 -0.2829997 0.0034683237 -0.13039741 -0.011512964 -0.32056135
0.035163533 0.09788441 -0.12741466 -0.61924434 -0.31100395 -0.09855854 0.008575259 -0.026246024
0.18187478 -0.00850397 0.020120695 -0.0020919177 0.0648813 0.01413487 0.25265542 0.014855805
0.006998455 -0.0005439342 0.0172417 0.02111206 0.003748522 -0.015680298 0.002776169 0.34480643
0.57557535 -0.0008929706 -0.0046401145 0.6249396 0.80824304 0.5155849 0.65596616 0.6626804
0.7955334 0.46368533 0.36621985 -2.1908424 0.489949 0.42514876 0.35463786 1.951884
0.5652427 0.3564358 0.54897845 0.027886013 0.64128613 0.4188368 -0.0037819257 0.6645455
0.4870595 -0.35152858 -0.036484912 0.5627064 2.5162253 -1.8975455 -0.63245946 0.8723921
0.07115177 1.07775 -2.5515938 0.33445352 0.04764476 0.32089216 0.047587752 0.43710282
0.83419454 0.6177454 0.26859507 0.603604 0.54177743 0.729178 -2.2637818 0.17263074
0.3381336 0.06597421 0.7032703 0.01197964 0.4682866 0.023899423 0.22606122 -4.361099
-1.3014916 0.009675618 1.893365 1.2953585 0.06293425 2.7262592 -0.004031654 0.46965048
-0.21388565 -0.19431025 -0.044679828 -0.39795774 0.19865863 -0.216566 -0.18528014 -0.53925425
1.4950217 -0.58005106 -0.35148835 -2.9689097 -0.48001066 -0.4399276 -0.4244417 2.386088
0.009762773 -0.31122425 -0.11881381 -0.07899647 -0.09015715 -0.5584893 0.043779023 -0.28723362
-0.42436555 -0.36662245 -0.055007007 -0.17679012 2.1258914 -1.7182385 -0.097844616 0.05831797
0.007052941 3.0856845 -2.314807 -0.5513459 -0.08728838 -0.4555547 0.05788341 0.60992086
0.15870725 -0.24311116 -0.6097239 -0.51135755 -0.23567371 -0.3946538 -2.4648497 -0.24007003
-0.5276584 -0.055431597 -0.4189025 0.0008383928 0.57210076 0.16380887 -0.62822837 -5.5864844
0.40508223 0.4089421 -4.851665 2.201637 -0.122260615 2.0928907 -0.03108134 -0.5188823
0.7362589 0.0766345 0.4254697 0.6582869 -0.25919047 -0.5074808 0.20151359 -0.38302767
0.25850677 0.346956 0.10959433 -0.045020197 0.33707485 0.11654952 -0.21564987 -0.064864494
0.41486245 -0.87211776 -0.02050255 0.05324573 -0.2277412 -0.43485418 0.24303001 -0.4780275
-0.6607771 -0.41016966 0.018089673 0.17594172 -0.08635868 0.0041319495 -0.4114977 0.2112825
0.1492461 -0.13611582 0.05541257 0.017823951 0.16491923 0.27311793 -2.7815917 -0.4287698
0.39240983 0.23379566 -0.19717118 0.007846567 -0.27294552 0.31383756 -0.009373339 -0.013378906
0.457507 4.289583 -0.22780652 0.04875873 -0.8441305 -0.09682529 -0.050821997 -0.010242444
0.015119479 -0.062816516 0.039464634 0.06753005 5.0577602 0.10990323 0.10277402 0.14087227
00000000: 5500 8abd 5f50 5036 0abe 5dba 3f66 12be
00000010: e9f0 03be 1177 ed3e 2133 aebd 4da8 b23e
00000020: 2742 f13d a3fa 78bd f6ac 913e e98f 9a3b
00000030: ae5e cbbb 2828 8c3e 935e e83d f4e5 8ebb
00000040: e25d 6e3e 6ba7 f0bd ef67 e03e 6b96 89bb
00000050: 1b82 97bc 1e6d 48be cc6f a5ba ef13 68be
00000060: 045a 7a3d 6b94 d63c 3d6c 093b 4d7d f93d
00000070: 8243 02bd a769 763a f79f da3b 8913 dc3a
00000080: 1975 19bc fcec 4f3d 613e db3c 56e5 90be
00000090: d14c 633b e686 05be dfa0 3cbc 9e20 a4be
000000a0: a307 103d 9f77 c83d fd78 02be cc86 1ebf
000000b0: e93b 9fbe 0fd9 c9bd 3e7f 0c3c e701 d7bc
000000c0: 623d 3a3e 3c54 0bbc 28d4 a43c 8e18 09bb
000000d0: 7de0 843d f195 673c 0d5c 813e c365 733c
000000e0: 4c53 e53b ce96 0eba 773e 8d3c 33f3 ac3c
000000f0: c3a9 753b f873 80bc 63f0 353b 788a b03e
00000100: e858 133f 3e16 6aba 1a0c 98bb 0bfc 1f3f
00000110: 04e9 4e3f 5ffd 033f 66ed 273f 6ca5 293f
00000120: 14a8 4b3f 2a68 ed3e 2b81 bb3e c336 0cc0
00000130: 98da fa3e 19ad d93e 1893 b53e 56d7 f93f
00000140: bfb3 103f c17e b63e da89 0c3f 3571 e43c
00000150: 542b 243f c771 d63e 2fda 77bb a71f 2a3f
00000160: dd5f f93e 8efb b3be 3471 15bd 870d 103f
00000170: d609 2140 c5e2 f2bf dde8 21bf 1755 5f3f
00000180: 05b8 913d b6f3 893f 504d 23c0 7e3d ab3e
00000190: 2727 433d fa4b a43e 60eb 423d f1cb df3e
000001a0: c68d 553f 9024 1e3f 4b85 893e cb85 1a3f
000001b0: edb1 0a3f 69ab 3a3f cde1 10c0 1dc6 303e
000001c0: d91f ad3e 7d1d 873d 8609 343f 4146 443c
000001d0: 43c3 ef3e b9c8 c33c 987c 673e 1f8e 8bc0
000001e0: 4797 a6bf 7c86 1e3c c959 f23f 4fce a53f
000001f0: ace3 803d 087b 2e40 f71b 84bb 0776 f03e
00000200: d704 5bbe 44f9 46be 3202 37bd 1ec1 cbbe
00000210: 2b6d 4b3e 7ac3 5dbe 14ba 3dbe 910c 0abf
00000220: df5c bf3f 3a7e 14bf 48f6 b3be 9e02 3ec0
00000230: f5c3 f5be 313e e1be 6c50 d9be aab5 1840
00000240: 0af4 1f3c c958 9fbe a854 f3bd e7c8 a1bd
00000250: 50a4 b8bd 28f9 0ebf a251 333d 4910 93be
00000260: 7146 d9be f0b5 bbbe 074f 61bd 7808 35be
00000270: 9b0e 0840 3def dbbf c262 c8bd d3de 6e3d
00000280: 5b1c e73b db7b 4540 cc25 14c0 0125 0dbf
00000290: 40c4 b2bd 773e e9be 2817 6d3d c623 1c3f
000002a0: 2784 223e 22f2 78be de16 1cbf 54e8 02bf
000002b0: 7354 71be 1010 cabe 19c0 1dc0 ebd4 75be
000002c0: 9f14 07bf 3e0c 63bd 637a d6be 97c7 5b3a
000002d0: 3275 123f 83bd 273e 93d3 20bf 7bc4 b2c0
000002e0: f066 cf3e dc60 d13e d740 9bc0 9fe7 0c40
000002f0: c663 fabd ecf1 0540 4b9e febc 78d5 04bf
00000300: 777b 3c3f 8cf2 9c3d 2ad7 d93e 7e85 283f
00000310: 9db4 84be 43ea 01bf 9459 4e3e 341c c4be
00000320: 005b 843e 38a4 b13e fe72 e03d 1967 38bd
00000330: 1395 ac3e 84b1 ee3d 52d3 5cbe add7 84bd
00000340: da68 d43e 1c43 5fbf f7f4 a7bc 3218 5a3d
00000350: fd34 69be 35a5 debe dcdc 783e 05c0 f4be
00000360: b028 29bf c201 d2be cb30 943c 112a 343e
00000370: d2dc b0bd 4e65 873b d4af d2be 715a 583e
00000380: f8d3 183e f261 0bbe 4af8 623d 8903 923c
00000390: 96e0 283e 1dd6 8b3e 9905 32c0 b787 dbbe
000003a0: f1e9 c83e 2168 6f3e 3ee7 49be e38e 003c
000003b0: 84bf 8bbe 51af a03e a292 19bc 3333 5bbc
000003c0: 5c3e ea3e 4444 8940 1d46 69be 3cb7 473d
000003d0: f018 58bf 564c c6bd ba2a 50bd edcf 27bc
000003e0: b1b7 773c f2a5 80bd aba5 213d 324d 8a3d
000003f0: 2cd9 a140 f214 e13d 2f7b d23d d240 103e

mlp.2.bias f4 [7]
0.045320615 0.26888254 -0.15273872 0.029956363 0.14398827 -0.0024761716 -0.087622955
00000000: 1ca2 393d f9aa 893e 8a67 1cbe 0c67 f53c
00000010: a971 133e 4447 22bb aa73 b3bd
