models/model_00b0b9af.pth (torch, 649877 bytes, 8 tensors)

layers.0.weight f4 [256, 468]
000000 4e 51 4c bd be 10 22 be fc a3 b1 bd c9 fd 1a be
       -0.049882226 -0.15826699 -0.08673856 -0.15135874
000010 f9 ea 04 be 55 77 8f bd ba dd c0 bc 5e d2 aa bd
       -0.1298026 -0.07005183 -0.023543227 -0.083409056
000020 dd 3a 80 bd 46 5d d6 bd 90 c5 e6 bd f0 28 3d 3c
       -0.06261227 -0.10467009 -0.11268151 0.011545405
000030 d6 da a9 bb 48 78 19 be f6 a6 ae bd f5 10 10 be
       -0.005183558 -0.1498729 -0.08527939 -0.14068969
000040 de 33 6d bc 57 63 d5 bd 09 92 5b bd 54 64 01 be
       -0.014477698 -0.10419338 -0.053606067 -0.12635928
000050 57 25 25 be 1e c5 21 bb 5e 29 77 3c 01 37 0e be
       -0.16127525 -0.0024684141 0.015085546 -0.1388817
000060 37 f2 fe bd 3f f6 9f bd 6d 1f 1a be fd 67 90 bd
       -0.124485426 -0.078106396 -0.1505105 -0.07051084
000070 93 7b 2c 3c 10 fb b7 bd 6c 4d 19 be 3f e6 e1 bd
       0.010527509 -0.08983433 -0.1497094 -0.11030244
000080 55 3e 25 bd 57 a9 e0 bd 71 ad 01 be d9 22 03 bb
       -0.040342648 -0.10969799 -0.12663819 -0.0020009784
000090 13 b6 db bd 63 0a e6 bd ba e8 1a be 3e 10 b7 bc
       -0.10728087 -0.1123245 -0.1512784 -0.022346612
0000a0 c6 0e 4f bd 9d 2e c9 bd f9 27 9b 3c 8c c8 98 bd
       -0.0505512 -0.09823344 0.018939959 -0.07460126
0000b0 9a 3a 01 3c d3 91 f2 bc 6e 52 0f be e6 1c 2f bc
       0.007887507 -0.02961055 -0.13996288 -0.010688042
0000c0 33 16 0e be a5 0a 42 bd 25 5e 01 be 8b 2f a2 bb
       -0.13875656 -0.047373433 -0.1263357 -0.004949515
0000d0 2f 77 36 3a 75 ec cb bc 65 66 e3 bd 4c 92 01 be
       0.0006960509 -0.024893025 -0.111035146 -0.12653464
0000e0 fa 37 8e bc 7f 5a b7 bd 5d 7b e3 bd ed 08 53 bc
       -0.017360676 -0.08952808 -0.11107514 -0.012880546
0000f0 ae e7 aa bd 23 f9 05 be 9f b9 1c be e4 39 ea bd
       -0.08344971 -0.1308332 -0.15305184 -0.11436823
000100 85 bd ea bd 9d 42 ab bd 12 ee 8b bd 87 47 ca bd
       -0.11461929 -0.08362315 -0.06832518 -0.09876924
000110 49 7f 2c bd 8b eb b8 bd 4e d7 14 bd 5a f6 71 3c
       -0.042113576 -0.09029301 -0.036338143 0.014768207
000120 92 9e d7 bd b7 2c 15 be 05 1c de 3c 41 61 c2 bd
       -0.10528292 -0.14567839 0.02711297 -0.09491206
000130 f6 d4 85 bd 15 2a 43 bd c2 1b 2d bd 05 ad bf bd
       -0.0653476 -0.047647554 -0.0422628 -0.09359173
000140 e9 5b d4 bb 09 84 7d bd 92 35 ca bc 44 0d 0b bd
       -0.006480683 -0.061893497 -0.024683747 -0.033948198
000150 56 24 65 3c b5 b0 b9 bd 9d b7 ee bd 35 e7 ae bd
       0.013985714 -0.09066907 -0.11656115 -0.08540193
000160 cf 64 58 bc 7f 99 c8 bd 75 c6 b4 bb a8 41 93 3c
       -0.013207628 -0.09794902 -0.005516822 0.017975643
000170 65 c8 d0 bd ea b8 af bc 54 47 41 bd be 24 1d be
       -0.10194472 -0.021450479 -0.047187164 -0.15346047
000180 e8 9f 5a bd 7a 2d 93 bb 97 7e 14 be 0c 5b 69 bd
       -0.053375155 -0.004491505 -0.14501415 -0.056971595
000190 ed 5b ef bd 0b da b4 3c b6 15 d3 bd 28 2c ba bd
       -0.11687455 0.022076627 -0.103068754 -0.090904534
0001a0 b3 2f c6 bd d5 9f ce bd 85 35 25 bd 25 d7 82 3c
       -0.09677067 -0.10089079 -0.040334243 0.01597173
0001b0 c5 c7 f2 3b b5 2c b6 3c 36 22 e3 bd f9 b6 0f be
       0.0074090683 0.022238115 -0.110905096 -0.14034642
0001c0 97 c4 16 bc 77 fb 39 3c cd 6f bd 3c 3d c5 05 3c
       -0.009202144 0.011351458 0.0231246 0.008164701
0001d0 43 0d 26 bd 59 1d 85 bd 26 5b 87 b5 8a f8 2d bd
       -0.04053999 -0.06499738 -1.0084811e-06 -0.042473353
0001e0 03 e3 ba bd 78 dd a6 bc 7e e1 0e 3b b2 d8 01 3c
       -0.0912533 -0.020369276 0.0021801884 0.007925199
0001f0 e3 46 d9 bd 44 1c bb bd 0f f8 b2 3c fe 21 60 bd
       -0.10609224 -0.091362506 0.0218468 -0.054719917
000200 a4 a5 7d 3c 60 69 67 bd 86 73 d0 3b 4e 86 ce bd
       0.015481386 -0.056496978 0.0063614277 -0.1008421
000210 5d 6c a8 bd 1a c7 cf bd 2d 34 f9 bd 44 03 10 be
       -0.08223794 -0.101453975 -0.12168155 -0.14063746
000220 17 e5 13 be 8e d0 91 bc 73 9d 8d bd d2 40 e7 3c
       -0.1444286 -0.017799642 -0.06914797 0.02822915
000230 78 11 24 bd 8b 16 9a bc fa 09 73 bd a7 08 0f be
       -0.040055722 -0.018809577 -0.059335686 -0.13968144
000240 48 d6 d3 bd ec 73 08 be f4 24 f9 3c 0c 6b 08 3d
       -0.10343605 -0.1332547 0.030413128 0.033305213
000250 d2 d8 a9 bc 88 ee e3 bd 4d c6 01 bd 7e 3a 39 bc
       -0.02073327 -0.111294806 -0.031683255 -0.0113054495
000260 fd e7 9d bb 85 e7 05 be 30 a0 6b bd c4 4a 9e 3b
       -0.004818915 -0.13076599 -0.057525814 0.00483069
000270 b2 52 e7 3c 48 e2 83 bd 26 d3 a3 3c 9b a4 f5 bd
       0.028237674 -0.06439644 0.019998144 -0.119942866
000280 d2 20 0d bd 21 0b 02 bd fd dc 7b bd f4 cc 5d bc
       -0.034455128 -0.031748895 -0.061490048 -0.013537634
000290 97 07 25 bd 63 ca 72 bd cf eb 73 bc 19 4c 83 bd
       -0.04029044 -0.059275042 -0.014887764 -0.06410999
0002a0 5e d4 44 bd a3 6e db 3c 6c 18 d3 3c 1c 59 1f 3b
       -0.04805409 0.026786154 0.025768481 0.0024314588
0002b0 b4 44 57 bc 93 e5 e2 bd 4c f9 5d bd 3c 55 eb 3b
       -0.013138939 -0.11078944 -0.054192826 0.0071817916
0002c0 ba 7c aa bd 1b d5 91 bd ad 25 fe bd f8 2e dd bd
       -0.08324571 -0.07120725 -0.1240953 -0.10799974
0002d0 32 97 bf bd f8 82 38 bc 3f 73 12 bd 4b 85 75 3c
       -0.0935501 -0.011261694 -0.03575444 0.014985393
0002e0 3d 49 0d be 1b 54 8d bd 39 c4 38 bc a2 84 af bd
       -0.1379747 -0.069008075 -0.011277252 -0.085702196
0002f0 a8 ef 0f bd 36 31 0b 3d 80 de b2 bc 20 bf 00 be
       -0.035140663 0.033982478 -0.021834612 -0.12572908
000300 c2 c4 e2 bc 78 15 7d 3c ca 71 87 bd 14 3f 72 bd
       -0.027681712 0.015447013 -0.066135004 -0.059142187
000310 ac 6e 6a 3c f1 82 53 bd b6 4d c7 bc 27 5a 13 be
       0.014308613 -0.051638547 -0.024329048 -0.14389859
000320 00 d6 45 3c 2a b9 93 bd c4 6d 78 bd fa 99 86 bd
       0.012074947 -0.072130516 -0.060651556 -0.065723374
000330 cb 64 e8 bd 8f 7c 0c 3d 52 ad 92 bd d8 c4 88 bd
       -0.1134735 0.034298476 -0.071619645 -0.0667817
000340 9f f1 2a bd ac e2 ea bd 75 14 f4 bd 2f 6a a1 bd
       -0.041734334 -0.114690155 -0.11917964 -0.07881581
000350 f8 88 cc bd 97 c7 97 3c 81 d8 08 be b4 ea 15 ba
       -0.09987062 0.018527789 -0.1336384 -0.00057188724
000360 db 99 80 bc 21 7a c3 3c 1f 29 12 be 22 ec 84 3c
       -0.015698364 0.023861947 -0.14273499 0.016225878
000370 a2 c1 9f bd 1f f1 cd bc c7 77 d0 3c 08 e9 0f be
       -0.078006044 -0.02513939 0.02544774 -0.14053738
000380 48 52 8a bd 56 ac b2 bd 83 35 b3 bd c0 81 61 bd
       -0.06753975 -0.08724277 -0.08750441 -0.05505538
000390 b4 62 7f bd d3 d7 e5 bd 04 25 19 bd 74 59 1a 3d
       -0.06234999 -0.11222806 -0.037388816 0.037682965
0003a0 8d 4b 27 3d d2 db 78 bc e0 bc 08 bd 29 d5 62 bd
       0.040843535 -0.015189128 -0.03338325 -0.055379067
0003b0 fc 98 98 bd 3f d6 d3 bd 65 28 84 bc 48 02 78 bd
       -0.074510545 -0.103435986 -0.016132543 -0.06054905
0003c0 8a 39 ac bd 96 30 15 3c 15 43 8a bd 62 01 36 3d
       -0.08409412 0.009105822 -0.06751076 0.044434913
0003d0 a0 83 8b bc fe 50 0e bd 41 a7 a2 bd 91 19 50 bd
       -0.017030537 -0.03474521 -0.079420574 -0.050805632
0003e0 a4 73 94 bd ea 62 c5 bd 11 99 dd 3c 5c 2a 13 3d
       -0.07248619 -0.09638007 0.027050527 0.03592907
0003f0 20 f7 2d 3d 82 aa 87 bc 0f 75 1b bd 5d 46 c9 bd
       0.042472005 -0.016560797 -0.037953433 -0.09827874

layers.0.bias f4 [256]
000000 79 cd b2 3d 4e 96 c1 3d d7 1c 03 3e 93 39 e4 3d
       0.08730597 0.094524965 0.1280397 0.11143794
000010 87 43 8e 3d 18 46 be 3d 00 40 60 3e e0 4d 1f 3e
       0.069464736 0.09290713 0.21899414 0.1555705
000020 d0 88 bd 3d 97 29 3c 3d 04 f1 78 3d 19 ee 16 be
       0.092546105 0.0459381 0.060776725 -0.14739265
000030 77 65 75 3d 1c 70 cc 3d f7 97 d7 3d 1b 77 e6 3d
       0.059911218 0.09982321 0.10527032 0.11253186
000040 26 97 e3 3d a1 b8 02 3e 51 b7 af 3d e6 9d 0d 3e
       0.11112814 0.12765743 0.08579887 0.13829765
000050 c5 28 f1 3d 56 51 e6 3d e3 5d a8 bd 5d 2b 93 3d
       0.11775354 0.11245982 -0.082210325 0.07186005
000060 f8 3e 07 be ec 8b d7 3d 77 32 24 be 40 17 00 bd
       -0.13207614 0.10524735 -0.16034876 -0.031272173
000070 7d 3d ca 3d 40 4e cf bd e2 7e cb 3d 23 a7 20 be
       0.09875009 -0.10122347 0.0993631 -0.15688758
000080 18 80 a2 3d 77 61 eb 3d e6 39 59 3d 45 80 e5 bd
       0.07934588 0.11493199 0.053033732 -0.11206106
000090 00 d1 f4 bd ec 9a 9a 3d 2e 3e 0d 3e 67 ae 2d 3e
       -0.11953926 0.0754908 0.13793251 0.1696106
0000a0 be cd 30 3e ce f9 a9 3d b0 0e 03 be 97 2a ef 3d
       0.17265984 0.082995996 -0.12798572 0.11678045
0000b0 4c 42 08 3e 89 67 35 3d 87 b8 b9 3d 86 4d 88 3d
       0.1330654 0.044288192 0.09068399 0.066554114
0000c0 c8 c9 2c 3e 42 3c 5a 3d 74 63 bd 3d fd 3a f1 3d
       0.16873848 0.053280123 0.09247485 0.11778829
0000d0 d6 8c 25 3e 14 97 0c 3d da 67 ca bd 02 c7 fe 3c
       0.16167006 0.034323767 -0.09883089 0.031100754
0000e0 8f 25 d3 3d 9f fc 9f 3d 28 4b 72 3d 54 25 5b 3d
       0.10309898 0.078118555 0.059153706 0.053502396
0000f0 20 14 15 be 3d 58 8d 3d 36 dd 1f 3e 7f c4 b1 3d
       -0.14558458 0.06901596 0.15611729 0.08680057
000100 0d bb eb bc ea e8 99 3d 35 d1 b2 3d 1a 33 d7 bd
       -0.028775716 0.07515128 0.08731309 -0.10507794
000110 b1 23 c6 3d 8d 20 cb 3d ca b0 62 3d 8a a7 e2 3c
       0.09674776 0.09918318 0.05534438 0.02766778
000120 bd 3b 8f 3d 5e e5 29 3e 86 41 a9 3d e8 cf df 3d
       0.06993816 0.16591403 0.08264451 0.10928327
000130 7f c2 0e be 2a 5e 8d 3d 82 5b a3 bc e6 5a f0 3a
       -0.13941382 0.06902726 -0.019941095 0.0018337637
000140 44 2b e8 3d 93 aa 18 be d6 61 d2 3c 02 62 c5 bd
       0.11336377 -0.14908819 0.025681417 -0.09637834
000150 5d 89 15 be 6f a5 db 3d 82 8b cc 3d d1 a4 40 3e
       -0.14603181 0.10724913 0.099875465 0.18812872
000160 d7 c8 28 be 2e 6b a6 3d 0f b5 e7 3d f3 a7 03 be
       -0.16482864 0.08125912 0.11313831 -0.12857036
000170 43 08 ff bd 48 95 c6 3d b4 88 05 3e e0 56 2a be
       -0.12452748 0.09696442 0.1304043 -0.16634703
000180 be 3a 6e 3d 9e 4c 1b be b9 69 a5 3d 8b b9 2d be
       0.05816149 -0.15165946 0.080768056 -0.1696531
000190 f3 28 d6 bd 73 8d 10 be 5f ec a2 3d 2b b0 f3 3d
       -0.10457029 -0.14116459 0.079552405 0.11898836
0001a0 d4 49 40 3d 80 41 cd 3d cb 49 de bd fb 89 4b 3d
       0.046945408 0.10022259 -0.10853919 0.049692135
0001b0 26 37 ab 3d c5 aa 0e be be c2 be 3c af 09 b2 3d
       0.08360128 -0.13932331 0.02328622 0.08693253
0001c0 5b 02 1c 3e 91 88 bb 3d 78 00 20 3e ff 37 f6 3d
       0.15235274 0.09156907 0.15625179 0.12022399
0001d0 75 05 05 3d 4d 21 40 be ed 15 46 3d 47 c4 bb 3d
       0.032475907 -0.18762703 0.048360754 0.09168296
0001e0 fb 2f 17 3e f3 64 9f bd f8 d8 c4 3d 21 75 ac 3d
       0.14764397 -0.077829264 0.09611696 0.08420778
0001f0 35 6d e8 3d f1 bf ae 3d 60 c5 19 3e c6 b3 c8 3d
       0.113489546 0.08532704 0.15016699 0.09799914
000200 77 52 ee 3d 2e c9 05 3e 3b 93 f3 3d c6 05 18 3e
       0.11636823 0.13065025 0.11893316 0.14845952
000210 ca 56 af 3d 8b 85 bc 3d c4 e3 06 be d8 ed cb 3c
       0.085614756 0.09205159 -0.13172823 0.024893686
000220 cd 85 57 3d 5a 12 0a be 9e 3a c4 3d 5c 4a b6 3d
       0.052617837 -0.13483563 0.09581493 0.08900902
000230 15 6f 8a 3d 56 8e 34 3b e8 ca 05 bc 8a c6 13 3e
       0.067594685 0.002755066 -0.008166052 0.14431205
000240 f9 1b aa 3d a7 29 b7 3d 1a 63 eb 3d cb 9d 9c bd
       0.083061166 0.089434914 0.114935115 -0.07647284
000250 9f 54 be 3c ad 69 ef 3d 8b 56 d2 3d 93 4a e9 3d
       0.02323371 0.11690078 0.10270413 0.11391177
000260 40 8d 49 3d 61 98 2d be a3 17 1a 3e bb 1d fc bd
       0.049206972 -0.16952659 0.15048079 -0.12310358
000270 3d 31 05 3e 60 06 08 3e 2a c6 c3 3d c5 cb 07 be
       0.13007064 0.13283682 0.09559281 -0.13261326
000280 0d 84 6c 3d 98 4e de 3d 5c 0f 7c 3a 45 66 af 3d
       0.05774312 0.10854834 0.0009615326 0.08564428
000290 2e 5c 02 3e 82 26 8a 3d a0 55 9c bd 59 35 69 3d
       0.12730476 0.06745626 -0.07633519 0.056935642
0002a0 40 ca a7 3d b5 9d 9d 3d c6 14 09 3e e3 25 b7 bd
       0.08192873 0.07696096 0.1338683 -0.08942773
0002b0 9d 72 e3 3d 15 fa 0f be 8e 30 01 3e 43 f8 ec 3d
       0.11105845 -0.14060242 0.12616178 0.1157079
0002c0 fb 6f df 3d 0b 6c 23 be 7e 77 49 3d ea 29 e7 3d
       0.109100305 -0.15959184 0.049186222 0.11287291
0002d0 46 cc ac 3d 48 63 2d 3e 2a 46 fb 3d 87 ee 34 be
       0.084373996 0.16932404 0.12269242 -0.17669116
0002e0 19 e6 80 3d 3b 74 d6 3d 8a f4 f6 3d 72 f7 c0 3c
       0.06293888 0.10471388 0.12058361 0.023555491
0002f0 96 d7 98 bd a9 60 14 be 06 c2 b5 3c 41 e8 c8 3d
       -0.07462995 -0.14489998 0.022187244 0.09809924
000300 f5 d9 b9 3d 66 71 c3 bb 11 55 2b 3e 6b 01 d8 3c
       0.09074775 -0.005964446 0.16731669 0.026367864
000310 e7 aa da 3d 59 b3 f8 3d 56 a5 37 be 8a b4 a0 3d
       0.10677128 0.12143583 -0.17934164 0.07846935
000320 9c 32 11 3e 03 d3 0a 3e a3 d3 30 3e ac 60 d3 3d
       0.14179462 0.13557057 0.17268233 0.10321173
000330 4e b1 36 bd a0 82 21 3e e7 8e 1f 3e 77 73 3d be
       -0.044602685 0.15772486 0.15581857 -0.18501078
000340 60 6e 3f 3d 0a 48 19 3e d2 88 b2 3d 52 24 a7 3d
       0.04673612 0.14968887 0.08717503 0.081612244
000350 72 79 85 3d 4a 12 39 be a4 4f d9 3d 23 46 33 3d
       0.065173045 -0.18073383 0.10610893 0.04376806
000360 6b 09 a0 3d c4 80 c2 3d 6b fe 46 bd 24 f9 a4 3d
       0.07814296 0.09497216 -0.048582476 0.08055332
000370 f9 74 ce 3d fb 8c d9 3d 4d 9b dd 3d 69 e5 bb 3d
       0.100809045 0.10622593 0.10820637 0.09174616
000380 ce 70 32 3d e3 21 11 3d 7d 8f 14 3e a7 65 48 3d
       0.04356461 0.035432708 0.14507861 0.04892507
000390 db 79 1d be 8e 07 bf 3d 39 a6 02 3e d8 15 8a 3d
       -0.15378515 0.09327613 0.12758721 0.067424476
0003a0 05 6e e5 bc 81 fc c3 bd 20 6a d7 3d 10 19 bd 3d
       -0.028006563 -0.09569646 0.105182886 0.09233296
0003b0 14 73 da 3d 4b 00 a7 3d 4b 3e 6d 3d a7 76 b3 3d
       0.10666481 0.08154353 0.057920735 0.087628655
0003c0 81 75 dd 3d 34 57 92 3d c5 89 b4 3d c6 e8 e4 3d
       0.10813428 0.07145539 0.0881534 0.111772105
0003d0 7a 18 a6 3d 80 72 e8 3d 31 92 85 bd f1 1c b0 3d
       0.08110137 0.11349964 -0.065220244 0.0859927
0003e0 ce 7e 0e 3e 78 31 f8 3d c0 54 67 3d 4b 1b c4 3d
       0.1391556 0.121188104 0.05647731 0.09575518
0003f0 b0 31 78 3d 79 2f b6 3d a5 c2 16 be 81 ac f2 3d
       0.06059426 0.088957734 -0.14722688 0.11849309

layers.2.weight f4 [128, 256]
000000 4b 63 02 3e 57 b8 a2 bd b0 40 52 3d 1a d8 d8 3c
       0.1273319 -0.07945316 0.051331222 0.026470233
000010 ca fe b6 3d be 49 32 3d 24 4c 59 3e 4d 9d 2c 3e
       0.08935316 0.043527357 0.21220452 0.1685688
000020 cd c4 b5 3d bf b6 37 3d 66 8a 83 3c 9e 3f e1 bc
       0.088754274 0.044852015 0.016057204 -0.027496155
000030 21 27 3f 3b b7 be f3 bc 6b 37 f7 3d 6b ab 63 bd
       0.002916761 -0.029754026 0.12071117 -0.0555834
000040 b8 22 9c 3d 19 a1 5c bd f1 54 e8 3d dc 80 70 3d
       0.076238096 -0.053864572 0.11344326 0.05871664
000050 cd 4c ef 3c 5d 63 c2 3d ef f8 e8 bd 05 18 ee 3d
       0.029211426 0.09491608 -0.11375605 0.11625675
000060 65 12 7f bd 8a c1 7c 3d 7f 9a 8a bd be 12 10 be
       -0.0622734 0.06170801 -0.06767749 -0.1406965
000070 22 64 7e bd 7e 3b 2f be 66 38 8c b9 a8 59 44 bd
       -0.062107213 -0.17112538 -0.000267449 -0.047937065
000080 67 53 f8 3d 83 ac 44 3d 84 e2 f4 3c a1 d4 5d be
       0.12125283 0.048016082 0.029893167 -0.21663143
000090 d9 5e 71 3d f2 50 df 3c 50 6a a1 3d 9a 6c f9 3c
       0.058928344 0.027260277 0.078816056 0.030447293
0000a0 18 c6 44 bd cd 2f ff 3d 3d 4d 30 be 36 2a 39 bd
       -0.04804048 0.12460289 -0.17216964 -0.04520627
0000b0 f1 d8 9b 3d 51 4d a3 bd 06 50 a5 3d e2 94 ab bd
       0.07609738 -0.07973731 0.08071904 -0.083780065
0000c0 9e c2 37 3e d3 a2 0e 3d bd f4 a2 bd e9 63 11 bb
       0.17945334 0.03482325 -0.079568364 -0.0022184795
0000d0 f4 1e 83 bd 37 75 ad bd 70 fc b7 bd 58 b5 47 bd
       -0.06402388 -0.084696226 -0.089836955 -0.048756927
0000e0 65 50 da 3d bc 94 84 3d d4 08 86 3d 10 f3 a5 3d
       0.10659865 0.06473681 0.065446526 0.08103001
0000f0 fc 23 08 be 94 4e 69 3d 3c 60 14 3e e3 68 3b ba
       -0.13294977 0.056959704 0.14489836 -0.0007149113
000100 b2 cd c9 bb 1c 84 dd 3d ef df e2 3d df b4 03 be
       -0.006158554 0.108162135 0.11077868 -0.12861966
000110 d4 44 99 3d b9 1b cf 3d 68 3f b1 3d e1 c4 91 bd
       0.07483831 0.101127096 0.08654672 -0.0711763
000120 2c 45 10 3e 3e 0a f2 3d e8 a2 a8 bc 22 3b 97 3d
       0.14088887 0.1181836 -0.020585492 0.073843256
000130 cc 7a 81 3d a7 53 ae 3b e6 78 da 3d 78 ac 5b 3d
       0.0632225 0.0053200307 0.10667591 0.053631276
000140 66 dc 00 bd 94 c3 0d be 47 23 f9 3d 19 a9 e7 3c
       -0.03146019 -0.13844138 0.12164932 0.028278874
000150 40 6d 2b bd 14 b5 b9 3d 8d 4d 9b 3d 33 2e 3e 3e
       -0.041852236 0.09067741 0.07583151 0.18572311
000160 3b 81 96 bd e0 5c 01 3e 75 af 63 bd 63 a1 1f be
       -0.073488675 0.12633085 -0.05558725 -0.15588908
000170 bd 46 1c bc 86 10 3d bd d5 c7 03 bc 91 eb 37 bd
       -0.00953835 -0.046158336 -0.008043249 -0.044902388
000180 85 8f 1d 3d dc db e7 bd 9c 34 ac bd 3f d4 51 bd
       0.03846695 -0.11321232 -0.08408472 -0.051227804
000190 94 9d ce 3d 95 5c 1f 3c 8a 04 03 be 15 44 be bc
       0.100886494 0.009726663 -0.127947 -0.023225823
0001a0 01 18 79 3c dd 4c 46 3d 8f 1a 2f bd c8 10 ba bd
       0.015203477 0.048413146 -0.042749938 -0.09085232
0001b0 be 48 aa bb b1 ed e9 bd b8 6f 23 ba 22 e5 87 3d
       -0.00519666 -0.11422289 -0.0006234604 0.066355005
0001c0 08 d5 61 bd 3a 2c bd bd 7a eb 09 3e 83 7b ff 3d
       -0.055134803 -0.09236951 0.13468733 0.1247473
0001d0 6b e2 1d be ef df 88 bc 76 96 8f bc c8 bf 05 3d
       -0.15418403 -0.016708342 -0.0175278 0.0326536
0001e0 cb 42 01 3d 14 da ee bd 1b 27 14 3e fc 70 b8 bd
       0.03155784 -0.11662689 0.14468043 -0.09005925
0001f0 42 92 9f 3c 1e 62 86 bd 95 e6 28 bd b1 0c c7 3d
       0.01947892 -0.06561683 -0.041235525 0.097192176
000200 b3 e2 eb 3d 4e 6c f7 bd 3c 70 13 3e 2d ad 07 3d
       0.11517849 -0.12081204 0.14398283 0.033124138
000210 82 e9 b9 bd 3a d7 ef bc 4e 99 04 be 59 88 0c bc
       -0.09077741 -0.029277433 -0.12949106 -0.00857743
000220 97 0e f1 3d 6c b5 91 bc fb a2 ab 3d 9e d1 49 3d
       0.11770361 -0.017786704 0.083806954 0.049272172
000230 e7 fb 96 3d 84 5d c7 bd fd 83 19 bd 0d ce c5 bc
       0.07372265 -0.097346336 -0.03747939 -0.024146104
000240 1e b5 91 bc 13 ee 12 3e e5 f6 d8 3c 83 d8 df bd
       -0.017786559 0.1434863 0.026484916 -0.10929968
000250 ac 21 cd bd c0 62 a7 bd d6 d1 34 bd d3 88 0f 3d
       -0.10016188 -0.08173132 -0.044145428 0.035042595
000260 a7 4b 6e bd d0 fd 50 bd 9b 4b 2d 3e 10 e0 b7 bd
       -0.058177616 -0.051023304 0.16923372 -0.089782834
000270 af b8 34 bc f8 c9 9f bc 91 21 bd bd 81 93 90 bd
       -0.01103036 -0.019505486 -0.09234918 -0.07059384
000280 8d 6f a2 bd b1 6e af 3d 70 21 b0 3d 1f 17 91 3d
       -0.07931433 0.085660346 0.08600128 0.07084488
000290 f8 55 09 3e 59 8f ab bd 01 ce 07 be 0a 75 ad bc
       0.134117 -0.08376951 -0.13262178 -0.021173973
0002a0 f0 96 78 bd 9f e8 e5 bd df ee d4 3d 4c 34 94 bc
       -0.06069082 -0.112260096 0.103971235 -0.018091343
0002b0 01 d5 13 3e 5a 4c e9 bd e2 b9 29 3e 92 d3 13 3e
       0.14436723 -0.11391516 0.16574815 0.14436176
0002c0 7c 1f ac bb ea f1 0b be 31 71 b3 bc 7a fa d4 3d
       -0.0052527767 -0.13666502 -0.02190456 0.10399337
0002d0 8c 30 8c bd 72 c0 2a 3e e6 98 12 3e ef df f9 bd
       -0.06845197 0.16674975 0.14316139 -0.12200915
0002e0 4a db ba bd ce f4 b8 3d 01 ea bd 3d 37 04 e1 3b
       -0.09123857 0.09031068 0.09273148 0.0068669575
0002f0 a9 ee e6 bd c5 d4 c2 bd 9a f1 c9 3b 9b ac 59 bd
       -0.112759896 -0.09513239 0.0061628344 -0.053143125
000300 08 4a 53 3c 1b 58 d1 bc b3 78 10 3e 9f af 07 3d
       0.012896068 -0.025554707 0.14108543 0.03312647
000310 2d 1e a9 bd 4d f9 32 3d 75 12 ac bd 2c df dc 3c
       -0.08257709 0.043694783 -0.08401958 0.026961885
000320 a5 06 d8 3d 89 ce 3b 3d 2b 04 ce 3d a3 ef 27 3d
       0.10548142 0.045851264 0.10059389 0.04100002
000330 bf 95 54 3d 6b 04 91 3c 51 73 d7 3c 11 d5 04 be
       0.05190062 0.017702302 0.026300104 -0.12971903
000340 26 f7 aa bd 7a 73 4b 3e 3d e0 d4 3c 70 6e 47 3d
       -0.08347921 0.1986827 0.025985831 0.048689306
000350 24 a3 f4 3d 6b d4 45 3d 4e fa b2 bd 23 18 29 3d
       0.11945179 0.04829828 -0.08739148 0.041282784
000360 83 9e e3 3d 2b b7 5f 3d 30 70 af 3d 87 a6 ad 3d
       0.11114218 0.054618042 0.0856632 0.08479028
000370 e0 6d de 3b c9 fb 02 3e 68 d8 c3 bb e3 03 ac bd
       0.0067880005 0.12791361 -0.0059767254 -0.08399179
000380 53 bc 97 3d 13 58 0d be 7d 0f 50 3b 37 3c 48 3d
       0.07408967 -0.13803129 0.0031747513 0.04888555
000390 2e d4 87 bd 84 02 ae bc 47 26 e5 3d 8e 07 4c 3c
       -0.06632267 -0.021241434 0.111889414 0.012452973
0003a0 fe d9 d0 bd df 44 64 3d a4 7b 94 3d 2d 36 b2 3d
       -0.10197829 0.055729743 0.07250145 0.087017395
0003b0 86 e6 20 3d 75 7f 06 3e 1c 49 d7 3d 6c 05 e4 3d
       0.039282344 0.13134558 0.105119914 0.11133847
0003c0 ed 24 ab bc f7 a5 98 bd 4a c7 c8 3d 6e 8a 91 3d
       -0.020891631 -0.0745353 0.09803636 0.071064815
0003d0 a0 a2 8e 3c 81 20 a1 3d 66 59 0a be 88 98 ea bb
       0.01741153 0.07867528 -0.13510665 -0.0071592964
0003e0 42 a1 1e 3d 49 ba a3 3d 31 72 dc 3d 14 07 05 3d
       0.038728006 0.079945154 0.10763968 0.032477453
0003f0 58 f8 86 bd 55 5e 67 3d 07 77 01 be 4b 3f ca 3d
       -0.065903366 0.056486446 -0.12643062 0.098753534

layers.2.bias f4 [128]
000000 8c 63 c1 3d 40 5a 10 be 27 08 13 3e da 6c b8 3d
       0.09442815 -0.14096928 0.14358579 0.09005137
000010 96 bd 8e 3d 58 5d b0 3d ed ea 1c bd bd c4 6a bc
       0.069697544 0.08611554 -0.03830998 -0.014329133
000020 ed 37 a7 bc 15 a5 ea 3d 10 ac 87 3d 0c 14 cf 3d
       -0.02041241 0.11457268 0.06624615 0.101112455
000030 b2 05 cf 3b 7b bb b4 3d 65 f5 9d 3d 2e 25 d1 3d
       0.0063178176 0.088248216 0.07712821 0.102121696
000040 61 91 9c 3d 71 9d d1 3d f3 55 84 3d 39 32 bd 3d
       0.07644916 0.10235108 0.06461706 0.09238095
000050 d1 6b 03 3e 63 0a bd 3d 8c cf a3 3d 6b 37 00 bd
       0.12834097 0.09230497 0.07998571 -0.03130285
000060 01 ba 42 be 59 25 9e 3d 0b da 97 bc e8 7c 3c bd
       -0.19016267 0.07721967 -0.018536588 -0.046017557
000070 26 31 a4 3d 5d 3a 80 3d ae 2e c2 3d b0 b8 bc 3d
       0.08017187 0.06261132 0.0948156 0.09214914
000080 74 62 de 3c b7 10 be 3d 56 45 04 bd 9f 97 1b bd
       0.027146555 0.09280532 -0.032292686 -0.037986394
000090 f5 32 d3 3d ce 4f ab 3d 4c 3d 36 bd e6 dd ea bd
       0.10312454 0.08364831 -0.04449205 -0.11468105
0000a0 2a 23 8b 3d ce ca a8 3d cd f3 fa 3d 7c 1f ca 3d
       0.067938164 0.08241807 0.122535326 0.098692864
0000b0 ed 63 a8 3d 49 7b 98 3d c1 91 17 3e e9 54 b2 3d
       0.08222184 0.0744539 0.14801694 0.087076016
0000c0 55 3f cf 3d 92 27 a7 bc f4 28 bb bc 78 fe 77 3d
       0.101195015 -0.02040461 -0.022846676 0.060545415
0000d0 a1 b7 a6 3b c0 eb bb 3a fc c0 bc 3d 2d d4 ef bc
       0.0050878082 0.0014337227 0.09216496 -0.029275978
0000e0 91 e3 b8 3d e1 78 8f bc 57 74 1d bd db 9f 25 3e
       0.0902778 -0.017513694 -0.03844103 0.16174261
0000f0 a5 c0 bd 3d 50 b0 0f be 1a 36 85 3d 5b 23 06 bd
       0.0926526 -0.14032102 0.0650446 -0.03274856
000100 39 ad 87 3d a8 f6 f3 bc 7a 93 00 3e 38 a1 ac 3d
       0.066248365 -0.0297807 0.12556258 0.084291875
000110 8b f6 9a 3d f4 cd a7 3d 7b 91 bf 3d 86 e4 d2 3d
       0.075665556 0.08193579 0.0935392 0.10297494
000120 15 93 ee 3d 24 be 36 be 04 1e 6d bc 8a 30 de 3d
       0.116491474 -0.1784597 -0.014472488 0.10849102
000130 68 dd d7 bc 7c 0f 9f 3d 3e 72 95 3c 41 a3 21 bd
       -0.026350692 0.07766625 0.018242951 -0.03946233
000140 36 5b 99 bc 67 49 df 3c 9a 19 a6 bc 66 0d c9 3d
       -0.01872025 0.02725668 -0.02027588 0.09817009
000150 8e 07 0b 3e a9 30 a2 3d f8 33 b4 3d 0b 81 bc 3d
       0.135771 0.079194374 0.08798975 0.092043005
000160 a9 50 88 bc 6c 0c 71 3d cc 74 09 3d 8d 37 9d 3d
       -0.016640024 0.058849737 0.03355865 0.07676611
000170 3c 9b d4 3c a2 a7 30 3e 15 9c 6d bd 40 48 28 3d
       0.025952928 0.17251447 -0.05801018 0.041084528
000180 ce 76 82 bd 80 37 59 3d a0 c4 0b 3e 7b 01 bd 3d
       -0.063703164 0.053031445 0.13649225 0.09228798
000190 9f 51 92 bc 27 fb e3 bc 24 82 ab bc c0 0e ac 3d
       -0.017861186 -0.02782972 -0.02093608 0.08401251
0001a0 a1 5b a5 3d 59 d8 bf bc 4a c0 9d 3d f4 f9 01 3e
       0.080741175 -0.023418592 0.07702692 0.12693006
0001b0 e2 c0 78 bc 56 4c 19 3e 63 36 9b bd 39 cd ee 3d
       -0.015182706 0.14970526 -0.07578733 0.11660237
0001c0 f4 5b ac 3d 03 fe b6 3d 53 c4 e4 bc 47 47 ab 3d
       0.08415976 0.08935168 -0.027925646 0.083632044
0001d0 e4 00 1e bd 5c ff 0c 3e 6f 5f 4e be df 3d 7f bc
       -0.038575068 0.13769287 -0.20153593 -0.015578716
0001e0 53 d7 25 be 4e ac 9b 3d f5 a1 a2 bd 6f 5a a7 3d
       -0.16195421 0.07601224 -0.07941047 0.08171546
0001f0 f9 17 87 3d c3 06 b7 bc a7 22 8a 3d 34 94 55 be
       0.06596369 -0.022342091 0.06744891 -0.20857316

layers.4.weight f4 [64, 128]
000000 7e f0 36 3e 54 d6 51 be ec d7 41 3e 38 5e b5 bc
       0.17865178 -0.20491916 0.18930024 -0.022139654
000010 82 0c 05 3e d1 e5 45 bd 18 ed 01 3e 57 e3 f9 bd
       0.12993053 -0.048314873 0.126881 -0.12201565
000020 94 6a 12 be 13 9f 82 3e 04 ca 85 3d 38 51 28 bd
       -0.14298469 0.2551199 0.06532672 -0.04109308
000030 cd a1 37 3e c0 27 d0 bc 3e fa 05 3e 10 bd 40 3d
       0.17932816 -0.02540958 0.13083741 0.047055304
000040 91 42 c4 bd 34 52 07 3e 9d 53 95 3d f3 e1 51 3e
       -0.09583009 0.13214952 0.072913386 0.20496349
000050 3a 2e 17 3c c5 ef 2f 3e b3 53 27 bd 10 22 49 be
       0.00922733 0.17181309 -0.040851306 -0.196419
000060 66 c2 01 be 89 9a 8d 3b b2 61 68 be ac f6 c4 3d
       -0.12671813 0.0043214005 -0.22693518 0.096173614
000070 b2 dc ab 3d ea 1e da 3d 60 74 b7 3d 7a da 2e 3e
       0.08391704 0.10650428 0.08957744 0.1707553
000080 ee 88 04 be ed 42 c0 bd 67 80 62 be 90 4a ef 3d
       -0.1294286 -0.09387765 -0.22119294 0.116841435
000090 74 16 51 3d 4c ff 5e 3e 68 c4 aa 3c 6b ad 9d bb
       0.051046804 0.21777076 0.020845607 -0.004811933
0000a0 c8 0c 4e 3e fb 22 7b 3e 19 6e d5 bd 2e c0 94 bd
       0.20122063 0.24525063 -0.1042139 -0.07263218
0000b0 75 d1 0f 3e 1c a5 16 3e ec 2c 09 be 4d dd 34 3e
       0.14044745 0.14711422 -0.13396043 0.17662545
0000c0 51 d6 2a 3e 9e 07 66 bb ca d4 78 3d d4 47 12 3e
       0.16683318 -0.0035099755 0.060749806 0.14285213
0000d0 ca 48 26 be 8b 0f ee bd 5e cf 6d 3d d1 66 6f bd
       -0.16238704 -0.11624058 0.05805909 -0.058447663
0000e0 fa 7c b5 bd e5 e9 3c be 15 ab 10 3e 9f 9a 66 3e
       -0.08861728 -0.18448599 0.14127763 0.22519921
0000f0 f2 0d 5c 3e 9f a3 0b 3e ed 45 21 3e 40 73 02 be
       0.21489695 0.13636635 0.15749331 -0.12739277
000100 89 da 82 bc 59 1b 13 be e0 4e 8a 3c be ae 02 be
       -0.015973346 -0.14365901 0.016883314 -0.12761971
000110 4c 12 33 3c 9e c8 17 3e 9b b8 00 3e 83 39 f2 bc
       0.010929655 0.14822623 0.12570421 -0.02956844
000120 c1 dc 6d 3e 82 13 2f be 1d 5c 55 be aa 43 72 3e
       0.23228742 -0.17097285 -0.2083592 0.23658624
000130 b4 7b 07 be 16 44 01 bd b5 75 39 3e e1 c3 92 3d
       -0.13230783 -0.031559072 0.18111308 0.07166267
000140 0d b5 be 3d c7 6d b8 3d 4f 2c df bd 49 c9 83 3e
       0.093118764 0.09005313 -0.10897123 0.25739506
000150 83 d0 0a be ab 45 4e 3e c9 01 a2 bd 44 c3 08 be
       -0.13556103 0.20143764 -0.07910497 -0.13355738
000160 b6 f4 55 3c a3 70 f5 3c 5e 11 0e be 56 1c ca bc
       0.013058832 0.029960936 -0.13873813 -0.024671715
000170 98 4e 1b bb 13 e7 07 3e db 49 6a be de 28 e7 bd
       -0.0023697969 0.13271742 -0.22879736 -0.11287092
000180 d7 d6 66 3d 55 25 d4 3d 80 05 54 3e d0 a8 84 3d
       0.05635723 0.10358683 0.20705223 0.06477511
000190 19 da 52 bb d2 5b 10 be e5 88 14 be 48 39 2c 3d
       -0.0032173453 -0.14097527 -0.14505346 0.042046815
0001a0 be 1d 33 3e 2f 55 3f be 18 78 96 bc e1 ea d1 3d
       0.17491814 -0.18684839 -0.018367812 0.10249878
0001b0 a8 95 84 3d e2 3d 7f 3e 43 a6 b8 bd b0 9a 01 be
       0.06473857 0.2492595 -0.09016087 -0.12656665
0001c0 91 3b 43 3e 98 38 d3 3d 3c 5c 50 be 2f cb e3 bd
       0.19065692 0.10313529 -0.20347685 -0.111227386
0001d0 30 66 a5 3c d1 52 b4 3a cc c0 9f bd a5 7e 66 bd
       0.020190328 0.0013757591 -0.07800445 -0.05627312
0001e0 39 3c 2c be d3 b1 e6 3d e8 0a b7 bd e7 0b 2b 3e
       -0.16819848 0.11264386 -0.08937627 0.16703759
0001f0 ab a9 39 3e f3 d0 ad 3d 62 e7 af 3d 11 02 83 be
       0.1813113 0.084871195 0.08589055 -0.25587514
000200 25 1e 98 3d 6f bd 3a bc 61 7e 5f be 34 31 05 be
       0.074276246 -0.011397704 -0.21825553 -0.13007051
000210 d6 be ef 3d 9f d6 87 3d 0a 69 0b 3e 20 71 3c 3e
       0.11706321 0.066327326 0.13614288 0.18402529
000220 84 10 3a 3e 7a c6 02 be 7e f9 52 3c 89 ec 2d 3e
       0.18170363 -0.12771025 0.012876866 0.16984762
000230 41 f4 b1 bc 66 d8 b3 3d 33 eb 8b bd 1c a4 b0 3d
       -0.021722915 0.08781509 -0.0683197 0.086250514
000240 1a ea b6 3d 17 26 fe bd 15 b9 2e 3e d1 64 6e 3d
       0.0893137 -0.12409609 0.1706279 0.058201615
000250 b7 4d 18 be ee ca 1f be 98 dc c9 3d f4 86 ac bd
       -0.14873396 -0.15604755 0.09856528 -0.08424178
000260 05 75 10 be 14 0e c6 3d cf 5e c6 bd 92 74 e1 3d
       -0.1410714 0.09670654 -0.09686052 0.11008562
000270 f5 dc 8d 3a 69 f0 84 3c 4d b9 7f 3d 43 e8 23 be
       0.0010823297 0.016227918 0.062432576 -0.1600657
000280 fc 05 90 3d d0 3c ac bc 38 ee fd bd 8a 1a 0a be
       0.070323914 -0.021025091 -0.12398952 -0.13486686
000290 fb 0a 91 3d 1f 82 f3 bc 59 11 0f be 49 a9 73 bd
       0.070821725 -0.029725133 -0.13971461 -0.059487615
0002a0 02 59 28 3e 30 2b 15 3c 98 81 1c 3d da ba 0f 3e
       0.16440204 0.009104535 0.038209528 0.14036122
0002b0 43 8e 42 bc 97 d5 0c 3d ff 7a 97 3d bd ac 27 3a
       -0.011874738 0.034383383 0.073965065 0.00063962844
0002c0 5b 94 6c bd 84 1a 9c bb c5 1a cc 3d 88 c8 3b be
       -0.05775867 -0.004763903 0.099660434 -0.18338215
0002d0 bc 22 3d bd ea 8b 34 be 31 df 79 bc 2d b4 2c bd
       -0.046175703 -0.17631498 -0.015250967 -0.042164017
0002e0 f8 6d 9f bd b9 ee 35 3e 95 df c1 bd 7d f4 2f 3e
       -0.07784647 0.17766847 -0.09466473 0.17183109
0002f0 fd 57 2b be 37 06 a7 bc 2e a3 40 bd e2 8b 4b 3e
       -0.16732784 -0.020388706 -0.04703062 0.1987758
000300 12 ce fc ba bb 55 17 be 8c da 85 bd bc d1 e1 bd
       -0.0019287488 -0.14778797 -0.06535825 -0.11026332
000310 8c 1a 29 be 29 a8 a4 3d 80 a6 01 3e 10 db e3 bd
       -0.16514033 0.080398865 0.12661171 -0.11125767
000320 a7 b2 5e bc 24 9d 29 3e cf 45 e7 bd a4 73 cd bd
       -0.013592399 0.1656385 -0.11292612 -0.10031822
000330 d5 6f a4 3d be 27 b7 bc b6 11 0d 3e 75 e0 39 3c
       0.08029143 -0.022357818 0.13776287 0.011345019
000340 83 dc 56 bd a5 f5 2f be 66 31 55 3d 69 d4 5c bd
       -0.05245639 -0.1718355 0.052049063 -0.053913508
000350 15 57 23 be e5 2b 54 bc 19 a9 a8 3d d3 b2 c3 bd
       -0.15951188 -0.012949918 0.08235378 -0.095555924
000360 9d f0 83 3d 8c 8c 59 bd 6b f7 a5 bd 89 41 85 bd
       0.06442378 -0.05311255 -0.08103832 -0.065066405
000370 7c 50 ad 3d 4c ea 87 3d 9a e4 58 bd b6 a3 05 be
       0.08462617 0.066364855 -0.052952386 -0.13050732
000380 fd f8 b9 bd 14 2c 12 3e 66 9e bb 3d 95 24 cd 3d
       -0.09080694 0.14274627 0.091610715 0.10016743
000390 a5 e7 1b 3e 59 27 db bc df 95 e2 3d 2b f9 ac 3d
       0.15225084 -0.02675216 0.11063742 0.084459625
0003a0 30 ca f6 bd 1c 15 9b bd 8e bb ec bd f0 b0 58 bd
       -0.12050283 -0.07572386 -0.11559211 -0.052903116
0003b0 de 22 e1 3d 52 55 02 bd 0a 79 eb 3c bd 68 cf 3c
       0.109929785 -0.03181965 0.02874424 0.025318498
0003c0 f6 b6 18 be e5 43 1e 3d ba d6 8f 3d 63 13 cb 3d
       -0.14913544 0.038638968 0.07023378 0.09915807
0003d0 ca f0 18 be 9a e8 94 3d 47 fc 29 3e 23 14 70 3d
       -0.14935604 0.07270928 0.16600142 0.058612954
0003e0 00 1a 0c 3e 3a 62 87 bb 7a f8 1b be 3d fa 1a be
       0.13681793 -0.0041315826 -0.15231505 -0.15134521
0003f0 77 8c 23 3d 78 dd a3 3d c4 24 f6 3d 50 9f 93 3d
       0.03992888 0.08001226 0.12018731 0.07208121

layers.4.bias f4 [64]
000000 aa ce 9c 3d 22 28 bc bc c4 31 80 bd a9 01 46 bd
       0.076566055 -0.022968356 -0.06259492 -0.048341427
000010 25 5c f2 bc 5f 25 d7 3d ea 0f 81 3d 5b 3c 9f 3d
       -0.029584954 0.10505175 0.063018635 0.07775184
000020 95 49 85 3d 6c 31 07 bd 64 25 a0 3d 2d b4 42 bd
       0.06508175 -0.033006117 0.07819632 -0.04753511
000030 42 24 7a bd ab a9 d8 bc 39 c2 f6 3c 47 1e 4a 3d
       -0.061069734 -0.026448091 0.03012191 0.04934528
000040 0a 47 e6 bc c6 3f a0 3d 68 d6 b6 bd 7d 70 68 3d
       -0.028110046 0.07824664 -0.089276135 0.056747902
000050 5e ca a3 3d 74 17 e7 bc 65 67 d2 bd 73 c8 5c bd
       0.07997583 -0.028209426 -0.10273627 -0.0539021
000060 80 e5 0d bd 65 88 52 3d 6f 4f 82 3d 8e d2 5f bc
       -0.034642696 0.051399607 0.06362807 -0.01366104
000070 1f 0f 8c 3d ba cd c4 bc bf c8 7e bd 89 6a b5 bc
       0.068388216 -0.02402388 -0.062203165 -0.022145526
000080 7e 91 10 bd d8 fa cc bc 31 1c 8b 3d 80 00 0e bd
       -0.035295002 -0.025021955 0.067924865 -0.034668446
000090 4a e7 9f 3d cc d5 ca bc b2 76 1b bd 50 40 c9 bc
       0.07807787 -0.02476015 -0.037954994 -0.0245668
0000a0 d5 15 36 bd b6 cc 8f 3d b4 74 96 bd c4 a0 44 3d
       -0.044454414 0.070214674 -0.07346478 0.04800488
0000b0 58 48 a0 3d 5d a5 8e 3d a7 e0 3b be 49 53 82 3d
       0.078262985 0.06965134 -0.18347417 0.06363542
0000c0 ba 30 92 3d 08 27 b8 bd 49 f0 fb bc d9 a6 af bd
       0.071382 -0.089918196 -0.030754225 -0.085767455
0000d0 bb 44 c9 bc 3f ab c1 bc 39 a0 95 3d 4b 1b 1b 3d
       -0.024568906 -0.023641227 0.07305951 0.037867825
0000e0 4a c6 21 3d 1c ce 2a bc 63 87 a2 3d 76 be 77 3d
       0.039495744 -0.010425117 0.07935979 0.060484372
0000f0 da 8e 84 bc 82 86 82 3d b9 1c 46 bd bb 24 a5 3d
       -0.016181398 0.063733116 -0.048367236 0.080636464

layers.6.weight f4 [8, 64]
000000 11 c2 4b 3e 75 d3 64 be f1 17 b7 be 20 04 61 be
       0.19898249 -0.2234629 -0.35760453 -0.2197423
000010 a7 26 6b be dd 79 12 3e 08 ce 5f 3e d8 53 ce 3d
       -0.22963963 0.143043 0.21855938 0.10074586
000020 b3 57 d0 3d e5 a3 a9 be 8a bb 95 3e 65 86 74 be
       0.10172977 -0.33132854 0.29244643 -0.23879392
000030 dd 9e 91 bd 7f d1 49 bd e2 34 9c bc ba 22 58 3e
       -0.07110379 -0.049272057 -0.019068185 0.21106997
000040 e7 06 a4 be ea c2 a2 3e 2f eb b2 be ce 95 0f 3e
       -0.32036516 0.31789333 -0.34945056 0.1402199
000050 c5 c3 a9 3e 61 38 e7 bd 29 72 62 bc fd 46 8c be
       0.33157173 -0.1129005 -0.013821163 -0.2739791
000060 75 52 27 be ef 9d ae 3c 26 f5 f6 3d d0 c5 ab be
       -0.16340049 0.021315543 0.12058477 -0.33549356
000070 14 35 da 3d b6 46 91 be d9 7c 38 be 4c 27 9b bd
       0.10654655 -0.2837426 -0.18016376 -0.07575855
000080 12 4e c9 3c 83 9d 80 be ff 84 90 3e eb 95 8d bd
       0.02457336 -0.25120172 0.28226468 -0.0691336
000090 21 3f dd 3d 2f a6 f3 bd b2 52 1b bd 9f c7 59 be
       0.108030565 -0.118969314 -0.03792066 -0.21267556
0000a0 94 07 9b be 3f 6b ca 3d d6 48 ae be 47 2f 2c 3e
       -0.3027922 0.09883737 -0.34039944 0.1681491
0000b0 78 47 dd 3d 9f f0 46 3e 05 8a 0a 3d 08 f0 89 3e
       0.10804647 0.19427727 0.033823032 0.26940942
0000c0 e2 53 46 3e 64 1d 88 be 44 df 19 3e 3e 9b a4 be
       0.19367936 -0.26584923 0.15026575 -0.3214969
0000d0 6d 02 b3 bd ff 21 a5 bd e9 b7 18 be 12 09 37 3d
       -0.08740697 -0.08063125 -0.14913906 0.044686384
0000e0 e8 f0 3a 3e c3 79 46 be d2 05 a2 3e 45 2c a4 3e
       0.18255961 -0.19382386 0.31645066 0.32065025
0000f0 f8 bd aa be 2a e1 95 3d 9d 02 8f be 78 e5 b9 3d
       -0.3334806 0.07318337 -0.2793168 0.09076971
000100 8d 52 0e 3d 45 e4 9f bd bc 74 81 3e 07 4a 28 bd
       0.034746695 -0.07807211 0.25284374 -0.041086223
000110 be fb df bd b6 f8 c8 ba 86 18 0d be 99 85 dc bd
       -0.10936688 -0.0015332911 -0.13778886 -0.10767669
000120 e2 3e 3b be 57 ed 1d 3e fd ca 4b be 3d d6 24 3e
       -0.18285707 0.15422569 -0.19901653 0.1609735
000130 a6 bf 89 3e 00 26 84 bd 26 ec 19 be 60 ce 3a be
       0.2690403 -0.064525604 -0.1503149 -0.18242788
000140 63 b8 a0 3d 61 45 03 be 11 4d 95 3e 71 c1 91 3c
       0.07847669 -0.12819435 0.2916036 0.017792435
000150 97 80 6c be 12 e3 72 3d 37 31 55 3e 18 60 8c 3e
       -0.23095928 0.059298582 0.20819555 0.27417064
000160 c5 05 18 3e 11 6e d2 bd d4 c1 8d be 13 47 46 3e
       0.14845951 -0.102749 -0.27686942 0.1936305
000170 f1 c9 38 be 9f 82 fe 3d e4 7b 77 be 82 6b b3 3d
       -0.18045785 0.12427258 -0.24168354 0.0876074
000180 4f a6 4a 3d 07 d0 82 3e ad ba 82 be 76 2b 12 3e
       0.04947501 0.25549337 -0.25533047 0.14274392
000190 e4 cb a0 be 49 23 f1 bd d1 4e 01 bc 1e 6f 7f 3e
       -0.31405556 -0.11774308 -0.007892326 0.24944732
0001a0 eb 50 76 be 12 77 59 be 5e 47 32 bd 8e 42 3d bd
       -0.24054305 -0.21236828 -0.043525092 -0.04620605
0001b0 5b 3d 85 be dc 6f 67 be 8b 2c c7 3e 4f d5 3a bc
       -0.26023373 -0.22601265 0.3890117 -0.011403396
0001c0 a3 c1 8e be af f0 6e 3e c1 da 89 3e b2 e5 a6 3e
       -0.27882108 0.23334001 0.26924708 0.3259712
0001d0 d6 64 7a 3e 23 cb 50 3e e1 14 9a be 92 6f bf bd
       0.24452528 0.2038999 -0.30094054 -0.09347452
0001e0 93 f9 46 3e 0a 84 9e be 6b 2f 86 3c a9 c6 24 be
       0.19431143 -0.30960113 0.016380033 -0.16091408
0001f0 d2 84 6c 3e 9f 2f ad bd b0 03 f0 3c 9d 7d 66 be
       0.23097542 -0.08456349 0.029298633 -0.22508855
000200 13 a0 84 3d b9 6f 8a 3e 15 7c e6 3d 0f 28 ea bd
       0.06475844 0.27038363 0.112541355 -0.11433422
000210 56 3a 9f be 65 54 07 3e 16 fa 18 3d 61 90 93 3c
       -0.31099194 0.13215788 0.037347876 0.018013181
000220 96 47 8e be 99 ee 0d 3e db 6e f6 bd 75 20 59 3c
       -0.2778899 0.13860549 -0.12032863 0.013252367
000230 af be 23 bc 79 d3 72 be 00 ca aa bd 1a 62 49 3e
       -0.009994193 -0.23713483 -0.0833931 0.19666329
000240 f6 4d 3d 3e 23 88 33 be 64 b5 68 bd a8 22 9c 3d
       0.18486771 -0.17532401 -0.056813613 0.07623798
000250 83 3a 69 be 04 72 84 bd cd b8 58 3e 12 d7 0e be
       -0.22776227 -0.06467059 0.21164246 -0.1394923
000260 ee 7c 6f be 6f 88 9a 3e ce 0e 97 3e a6 0b 51 be
       -0.233875 0.30182216 0.29503483 -0.204146
000270 1f d0 95 3e fe f0 9b 3d 18 5a 6f be f1 3d 56 be
       0.29260346 0.07614325 -0.23374212 -0.20922066
000280 a4 88 43 3d e8 4a d0 bc 5d a4 f5 bd ad b5 8f 3c
       0.047737733 -0.025426343 -0.119942404 0.017542684
000290 af 66 87 3d 8f 9e 8b 3d 8c 97 f3 3d c0 f4 5e 3d
       0.06611382 0.06817352 0.1189414 0.05443263
0002a0 f1 1b 29 be 3e 7e e6 3d e0 e1 56 3e a6 6a 47 3e
       -0.16514565 0.112545475 0.20984602 0.19474277
0002b0 c9 b4 52 3e f8 eb 34 3e 1a c6 b4 bd 11 0f 14 3d
       0.20576777 0.1766814 -0.088268474 0.03614718
0002c0 f0 83 c6 3d 62 fb 84 bd c0 78 5a be 1d ce 11 3e
       0.09693134 -0.0649326 -0.21335125 0.14238782
0002d0 c6 bd 44 be 74 52 48 be 76 d9 98 3e c4 1e 79 be
       -0.19213018 -0.19562703 0.2985341 -0.24328142
0002e0 24 18 b6 bd 56 86 a7 bc 04 46 f2 bd c5 f6 cc 3d
       -0.08891323 -0.020449799 -0.11829761 0.10008005
0002f0 6f 65 09 be 14 a2 94 3e 8b d5 32 be 77 1e 37 bd
       -0.134176 0.29029906 -0.17464273 -0.044706788
000300 34 cb 14 3e 20 88 15 3e 1f ce 69 be 42 32 66 bc
       0.14530641 0.14602709 -0.22832535 -0.014050068
000310 b2 ab 2e bc 4e 6e 84 be 64 13 87 bd 72 25 81 3e
       -0.010661053 -0.25865406 -0.06595495 0.2522388
000320 a1 7b 1f 3e fb 0c da bc b0 f0 83 3e 66 ed a8 be
       0.15574504 -0.026617518 0.25769567 -0.3299362
000330 f0 04 44 bc 22 49 87 3e 2d 60 b9 bd 26 01 be 3d
       -0.011964068 0.26422983 -0.09051547 0.09277563
000340 21 b0 ed bd 64 c0 98 bc 9f 89 60 bc 04 eb 9c 3e
       -0.116058595 -0.018646426 -0.013704686 0.30648053
000350 2d f0 15 be e7 67 a0 3e 2c c4 84 be bd 23 f1 bc
       -0.14642401 0.3132927 -0.25930917 -0.029435987
000360 d2 62 e4 3d 0c 61 15 3c ec a9 4d 3e 48 77 6f bd
       0.11151661 0.009117376 0.20084351 -0.058463365
000370 1d ea 5f be 68 fe 4b 3e b9 be 17 be b7 a4 a4 3d
       -0.21866651 0.19921267 -0.14818849 0.08039229
000380 18 05 57 be 91 4c 05 bd ea a4 83 3e 14 4b b6 3c
       -0.20998037 -0.032543723 0.25711757 0.022252597
000390 69 d7 7e be 3c ac 62 3e f3 62 f6 3d 09 d5 b2 bd
       -0.2488686 0.22136015 0.12030592 -0.087320395
0003a0 cc 6a d5 bd 56 40 59 3e e2 12 c2 3d 0d dc 28 3e
       -0.104207605 0.21215948 0.09476258 0.16490193
0003b0 bb 4a 54 be 54 f5 0e bd 3a b8 f7 3d 89 59 32 3e
       -0.20731632 -0.034901932 0.12095685 0.17416967
0003c0 c2 fe 85 3d e6 f0 00 3e be cb 7f 3d 26 b1 9d 3d
       0.06542732 0.12591895 0.062450163 0.07699804
0003d0 5e 3d 42 3e 5c af 17 bd f9 e8 80 3d 0f 82 3c bd
       0.18968722 -0.03703247 0.06294436 -0.04602247
0003e0 32 2a bd bd 73 64 1e 3e 79 fe 0f 3d b8 53 b7 3d
       -0.09236564 0.15468006 0.035154793 0.08951515
0003f0 60 57 47 be af 3f 46 3d c5 61 3c 3e 9f 8a 26 be
       -0.19466925 0.048400577 0.18396671 -0.16263817

layers.6.bias f4 [8]
000000 62 d3 6c 3d f6 a0 6c bd 0b be 21 3d 54 78 2b 3d
       0.057818778 -0.05777069 0.03948788 0.0418628
000010 b8 ef 51 3c d7 74 4d bd 4d 9d 28 bd 7c 1a 89 3d
       0.012813501 -0.050160255 -0.04116564 0.066945046
